DeepLearning for ComputerVison/project/A2/softmax_best_model.pt (torch, 247059 bytes, 1 tensors)

W f8 [3073, 10]
0	0x3f970867e37cc6aa	0.02249300313923778
1	0xbf8b88d4f557d1f2	-0.013444579827571499
2	0xbf9555f481895a15	-0.020835705190927884
3	0xbf9a696487c0313a	-0.0257926662307437
4	0xbfb4d80b93d732ab	-0.08142158851041852
5	0xbf8fe252b76f5bb0	-0.015568395827285503
6	0x3f9bf8411bf8d98d	0.02731420262554134
7	0x3f7842c0e6eb8a5f	0.005923036120949548
8	0x3fbcf550c386c226	0.11311821721643209
9	0xbf8823951b5a8867	-0.011786618134753192
10	0xbf91beb9ba8f304d	-0.017329122554471877
11	0xbf9ae305a873c72e	-0.026256645590314757
12	0x3fa2fc83b3a63fb4	0.037082782440051615
13	0x3f854065b6719298	0.010376734380949146
14	0x3f83ec49a92790b5	0.009728026842772722
15	0xbfad975eceb3d166	-0.05779548905585123
16	0x3faed74e6a3c317e	0.06023640677276186
17	0xbfa6658b19a77b00	-0.043743464357012485
18	0x3fb4f6d5d2d51cca	0.08189140698697198
19	0xbfabbf07bbcd5188	-0.05419181983475868
20	0xbfa4db844e05adba	-0.040737280391876365
21	0xbf8445716f1c8d62	-0.009898077205042714
22	0x3fae3de222d53e9f	0.059065882446359234
23	0x3f8b387f19c3aa25	0.013291352247013563
24	0x3fa150ddd3583f62	0.033820087479510944
25	0xbfa2fa61c50d48ee	-0.03706651239794377
26	0x3fa390aef29b8661	0.038213221659827885
27	0xbf9493ed990c70c7	-0.020095550981850587
28	0x3faa8f953ba0377c	0.05187670090536664
29	0xbfb6a5e76bd4fc50	-0.08846899397484376
30	0xbf91e8d7a9c5b51d	-0.017489785897329847
31	0xbf8edc4ef69ca237	-0.015068642521854787
32	0x3f9a22d7dbc27406	0.02552354124837921
33	0xbf754a106f9e5611	-0.005197586253321799
34	0x3f98b35e1f09cbef	0.024121733326364077
35	0x3f9bef110473b9b7	0.027279153725368235
36	0x3f4c6c643557f858	0.0008674134539317186
37	0xbf9a9767bb5f5d63	-0.025968190013228375
38	0x3fb1d9a19a678118	0.06972703952442705
39	0xbfb573c8020d1369	-0.08379793214869626
40	0x3f839a2ccecb38c4	0.0095714092834921
41	0x3f91ee2f5522863f	0.017510165759295978
42	0xbf57986424822e2a	-0.0014401414828481098
43	0xbf94386801cdb332	-0.019746422872617582
44	0x3fab0f63dcde7280	0.05285179206041324
45	0x3fa630b4797db1d4	0.04334033949894303
46	0xbf9ce82ac9ab052d	-0.02822939735302048
47	0xbfa5991fe681753a	-0.04218387306966993
48	0x3fa8c13cf70ecd6a	0.048349290045190355
49	0xbfb47c4e572156ca	-0.08002175929263014
50	0x3f8e57dfdb25e878	0.014816044688576321
51	0xbf92ebf9ac4b2d82	-0.018478299275370265
52	0x3f927ea2ca4d5243	0.018061202619110494
53	0xbf9a45611bc795cc	-0.02565528614095118
54	0x3f8dcb3a410dc85b	0.014547782049451443
55	0x3f94585cc41c1827	0.019868325681294288
56	0x3f7e8fe603988e35	0.007461451046342262
57	0x3fa2037b58283c63	0.03518281413209292
58	0x3fa1a0e046ae9d5d	0.034430512073692944
59	0xbfb9a910f8020931	-0.10023599676973018
60	0xbf72572b3746ff37	-0.004477661907401224
61	0xbf8ad264f62d5fab	-0.013096607935651003
62	0x3f9fd0c2c81e37b9	0.03106979700492449
63	0xbf878b504cf6af62	-0.011496188496344654
64	0x3f6e471a3394bf3c	0.0036960136173077845
65	0x3fa0cdd19c61b41a	0.0328202727695059
66	0x3f7210f45c33b89c	0.004410700351611532
67	0x3f81c3760ea94eea	0.008673593828610621
68	0x3fa151d6057f8d13	0.03382748429410234
69	0xbfb5deb147afbb96	-0.08542926788480396
70	0xbf96bb93c443fd90	-0.022199925283528155
71	0xbf7d70a867808197	-0.0071875170033596425
72	0x3fa47651754835d5	0.03996519619623099
73	0x3fa7b74be00b190b	0.04632031545547662
74	0x3f6de8053bf62cd1	0.0036506750327070865
75	0x3f77c72077409c72	0.005805136508605023
76	0x3f748c96679815f6	0.005016887205333989
77	0xbfa6ae2af0066db5	-0.044297544288578385
78	0x3faa6b49187c516f	0.0515997736348791
79	0xbfb423ea0c0e116c	-0.07867300791082749
80	0xbf9a545b95adfa29	-0.02571242428848045
81	0x3f9815d2dabb5757	0.023520750618295363
82	0x3f4f81527f3522ea	0.000961461335841821
83	0x3f93bb4232cec644	0.019269022322708787
84	0x3f9cff6cd20d7b86	0.02831811935481767
85	0xbfa86568fed2a7aa	-0.04764869795447109
86	0x3fb417f52f75395c	0.07849056633606238
87	0xbfb05e2d88772752	-0.06393704015422699
88	0x3f9e1b654ead2a3b	0.02940138142302316
89	0xbfa5d734a10f0758	-0.04265751329468398
90	0xbfa30867a7f546a6	-0.037173499348353276
91	0x3fa1be4f04fd21f9	0.03465506492517884
92	0xbf74cfe27202a5a2	-0.005081066658172347
93	0x3f908ea14a8d51e0	0.016169090438170275
94	0x3fac8e235a57ffde	0.055771927622117565
95	0x3f641d96877947b4	0.0024555149100615407
96	0x3fa24d89b559390b	0.03574781740882046
97	0xbfaada07c84038e2	-0.052444689936338454
98	0x3f9265f6887251ba	0.017967083051716883
99	0xbfb16ceedd816205	-0.06806843669745184
100	0xbfa08ae0d145f0e6	-0.032309556528135094
101	0xbf84a770fa64083f	-0.010084993974036503
102	0xbf7a24d3dd5317ae	-0.006382777782340128
103	0x3f8f2f51fce1ffb8	0.015226974992628914
104	0x3fa9af6199ce6244	0.050166177773637105
105	0x3fa410886f575405	0.03918863639015772
106	0x3f9244486b47f296	0.017838603542247165
107	0xbfabbf8144dded4d	-0.05419544187221934
108	0x3fa052a49dcaf91a	0.03188051630194107
109	0xbfaa4780d6b20cd9	-0.051326776702831096
110	0x3f578e67d3bf8292	0.001437760728542657
111	0xbf737daa9633f0b4	-0.004758516649641265
112	0x3f619bad574b266c	0.0021494279447765077
113	0x3fa8323c0b080ad1	0.047258259150131494
114	0x3f8d5ef07da17819	0.014341238817163359
115	0x3f966cc2a3d8f25f	0.021899262667135818
116	0xbf98dd145a835c2d	-0.024280851387484304
117	0xbf94654b8dd133d3	-0.01991766026576498
118	0x3f7fb892b43fd59d	0.007744381964575634
119	0xbfa77d12f4f1347a	-0.04587611427323508
120	0xbf875e749e741e9a	-0.011410628400440093
121	0x3fb8ebc90a544939	0.09734779836825148
122	0xbf984f5e3e84da64	-0.02374026543221887
123	0x3f9b288cb2cee966	0.026521871961202058
124	0x3f80aafa177645c8	0.008138612595561492
125	0xbf70be1caca9dd24	-0.004087554940830605
126	0xbf9aa49f9ad47032	-0.02601861364847497
127	0xbf90f6593ddf4b8c	-0.016564745332128747
128	0xbf9233a70aa1f46a	-0.017775163673367102
129	0xbfa097fd28cccb1f	-0.032409583311524985
130	0xbf7260e36562da0c	-0.00448693110063526
131	0x3fabbc0d10ba6655	0.054169090549475975
132	0x3f7b957915fed425	0.006734345428346199
133	0x3f8975a435ab3504	0.012431414497223965
134	0x3f7bb758efb12dd2	0.006766650588427807
135	0xbf91903489f175e0	-0.017151661795983375
136	0x3fa55a8615e759b3	0.041706266568940185
137	0xbfaf862ab059d51f	-0.06157048609467552
138	0xbf78ee42bb11685b	-0.006086598078662043
139	0xbfa0a54f68c82ee1	-0.03251121667935109
140	0xbf8de71f7fdc561c	-0.014600988473414005
141	0x3f8760f455766255	0.011415394647699953
142	0x3fa0bb7120018ae7	0.032680068165765346
143	0x3f786e85a46f951e	0.0059647770312712105
144	0x3fa148536847d3d3	0.033754927138864986
145	0xbf97ccab3c82e047	-0.02324168736296908
146	0x3f8713eefb49af28	0.011268488925643874
147	0xbfaf1ed650021d72	-0.06078214384711601
148	0x3f5f47a05f2397bf	0.0019091669205919396
149	0x3f5ad0708f5b11b3	0.0016366099566066216
150	0xbf92d806368715cc	-0.018402192190270658
151	0x3f83ba7e29e3996d	0.009633050587990433
152	0x3fb3dbed7a80609e	0.07757457962759637
153	0x3f96979543a625ce	0.022062618497818147
154	0x3fa19f31cce47291	0.03441768289687731
155	0xbfaae60e0d5f7164	-0.05253642953150253
156	0xbfa33ae33f98c185	-0.03755865241362514
157	0xbfa9158f93b3e0b9	-0.04899262121210896
158	0x3f9c474cef961cdf	0.02761573993987276
159	0xbf8c4a65e7db0c4b	-0.013813778055356126
160	0xbf8eb76420324142	-0.014998228294900277
161	0x3f92483c6a89d597	0.017853683474148587
162	0x3fa6b0b273d1f059	0.04431684173411616
163	0x3f7d95d4f0ef890c	0.007222968865763468
164	0x3fa0b79e9a8bc646	0.03265090595767765
165	0xbfadd81d07b9da37	-0.05828943938552238
166	0xbf95132d5675c6dd	-0.020580967332938783
167	0xbfa33f1ad3d7cbf5	-0.037590826377616716
168	0x3fa2dc522a738b5e	0.03683716552929782
169	0xbf7e61263432c1f8	-0.00741686747930758
170	0xbf716a0401ffee65	-0.004251495032800178
171	0x3f842a6e3bdebaa4	0.009846554948891147
172	0x3f817939ace90c6c	0.008532000150017725
173	0xbf927b4ac4940d11	-0.018048446891964668
174	0x3fa0f689f6deb116	0.03313094271229226
175	0xbf99b3950b229c58	-0.025099114231718594
176	0xbf876c16d40a98be	-0.011436632486333639
177	0xbf9d8c2c35d229b4	-0.02885502890107157
178	0x3f8ac40b77c19385	0.013069238273780712
179	0x3f97aa07d8cdb716	0.02310955296291358
180	0xbf968c514786651f	-0.022019643774546013
181	0x3f6b95026af6d740	0.0033669516776297093
182	0xbfac4a010d553879	-0.05525210654978791
183	0x3fa86c8820a1dfdc	0.047703031524122
184	0x3fa7c34f28c47ec0	0.046411966063030885
185	0xbfa1ec6d356db722	-0.035006916782420086
186	0x3f9b551e39202452	0.02669188712755883
187	0xbf9f6e76a47c469c	-0.030694822110553063
188	0xbf60d5e68f787534	-0.002055120766967145
189	0x3f95593c96eeb527	0.020848223411737223
190	0xbfa4dd09dc0e9359	-0.040748890030306746
191	0x3f9171fb8ec45160	0.017036371792600646
192	0xbfa3765bea87cb74	-0.038012382868962385
193	0x3f9fdc9674fafa9f	0.031114912881771258
194	0x3fb019441b06cd61	0.06288552913502123
195	0xbf75c66f46761418	-0.005316195172217618
196	0x3f81452f38483224	0.008432740120974343
197	0xbf900a962d296d17	-0.01566538477559928
198	0xbf7c42f4ac086369	-0.006899791479121877
199	0xbf8a43d90e2ae2eb	-0.012824722046717215
200	0xbf95a240cf534ebb	-0.021126759199275407
201	0x3fa411a812a584d3	0.03919720866793743
202	0xbf842b55500b3541	-0.009848276620142317
203	0x3f90d0095cf5439a	0.01641859655257214
204	0x3fa38417bd51d831	0.03811716257125431
205	0x3f909c35fb9f23a7	0.016220897181287743
206	0xbf7a243bcb344872	-0.0063822112745289695
207	0xbfadad58c6686064	-0.05796315595597504
208	0x3f93470714cd13bd	0.018825636524770085
209	0xbfa12122319fba7f	-0.033455914075479314
210	0xbf9efee0463f9b0c	-0.030269150054574687
211	0x3f9a9b29ebb2bed2	0.025982527743223134
212	0x3f90f49f0336b5ee	0.01655815560450507
213	0xbf73c0be5606afc6	-0.0048224864007515075
214	0x3f98a31059c4805b	0.02405953929803704
215	0x3faae4d9817fac8f	0.052527234132719085
216	0xbfa009bdb0093cdc	-0.03132431768301
217	0xbfa787834764d58d	-0.045955755677293465
218	0x3fa68e104f53e613	0.04405261009555885
219	0xbfaa033bf1b231e7	-0.05080592465774086
220	0xbf95b38b3d8c7bf1	-0.021192718154562532
221	0x3f786c9b3c8ca80c	0.005962950127278443
222	0x3f96652fc290ec6e	0.021870371103642254
223	0x3f98164df89a1f39	0.02352258519979886
224	0x3fa23bc481ea827c	0.03561224065675092
225	0x3f9fb678d0986ee8	0.030969512683539785
226	0xbfa4a36f3a239fc0	-0.04030940613466738
227	0xbf9fec0dd947548e	-0.03117391241706407
228	0x3f9cbeba7238f214	0.028071320745072084
229	0xbfab4e27b7f4357f	-0.053330651479067896
230	0xbf9415234f153f68	-0.019611884786456285
231	0x3faac884d2538a20	0.05231108729801215
232	0x3f822122dc47b89e	0.00885226473561956
233	0x3fb7b3e0a1828a75	0.09258846228707703
234	0xbf597162a5a9a55b	-0.0015529120779781056
235	0x3f85c6ff95a2d3a0	0.010633465532331077
236	0xbf989f2f34b5fe0a	-0.02404474028798912
237	0xbf980f1d5f88a58d	-0.023495158153456642
238	0x3f93ae9666c779ad	0.01922068598093467
239	0xbfbd6a3b7ed1b800	-0.11490222784206594
240	0xbf9d3dec3144dfcb	-0.028556528575080436
241	0x3fa28aed58494c87	0.0362161798735992
242	0x3f9d87d7e3ded1bb	0.028838513644318314
243	0x3fb5d897ba007107	0.08533619204576236
244	0xbf9b89f7225d6ce8	-0.026893483612508456
245	0x3f95f2a6ef746e60	0.021433456769143766
246	0xbf8b790738cf3e74	-0.013414436742009907
247	0xbf6f8024f85f37d7	-0.0038452837061191225
248	0x3f94fe0354739c8e	0.02050023272468287
249	0xbfbe9f05dbba5fdd	-0.11961399664357893
250	0xbfa399d4a420d64b	-0.0382830095626728
251	0x3f6b25f1ca4742be	0.0033139917816032696
252	0x3f71387a68969b62	0.004204252394095361
253	0x3fb3aeb3d08606bb	0.07688449707895988
254	0x3f97a2bf084a6147	0.023081765061392614
255	0xbf5d4130fe256932	-0.0017855623669534412
