DeepLearning for ComputerVison/project/A2/svm_best_model.pt (torch, 247039 bytes, 1 tensors)

W f8 [3073, 10]
00000000: 7f3b 525d 1b19 7e3f 65b4 c41b 2c26 603f
00000010: d1a1 b01f 9ec1 333f 0a62 aacc ac39 84bf
00000020: b3fd 7604 ca90 97bf 8572 49ac ee1f 8bbf
00000030: 9f6a 0b54 10ea 803f 29bf ba16 c11e 61bf
00000040: a64c 15ba 82af 9d3f 758a 14c1 4228 563f
00000050: cd96 41a3 6a26 46bf 939a 6c7c b766 733f
00000060: add5 7834 2d05 8b3f 56e6 5450 dd8d 4b3f
00000070: adab 3b04 76ce 82bf 0618 5053 d078 9dbf
00000080: 0bf1 7f54 7133 893f 53f8 571a 8e66 85bf
00000090: dd1d 4565 43e6 973f 5d82 a867 f8d1 75bf
000000a0: b66b 1de0 606e 7fbf 011c ab3c 3cae 743f
000000b0: 1b0c 5ec6 28d3 953f 1b99 363c 6d41 663f
000000c0: 0570 d5c6 135c 5abf f10c 39fe e4a4 97bf
000000d0: ee23 5a40 89df 883f 12f2 0b81 1b71 85bf
000000e0: dd0a 067d b5eb 903f 3a89 c98b b086 8ebf
000000f0: 6486 3988 93ce 71bf 0583 b8d9 ea95 753f
00000100: 64c4 26e2 fa0d 903f 855f 334b e1a7 1cbf
00000110: 6dbd 91dd 5e2d 453f a8af 5dff 2abb 82bf
00000120: b0f1 0fdd f6cf 653f 4024 8696 fd1b 8abf
00000130: dd59 901a 0fd3 933f 71a9 0a74 f5ae 91bf
00000140: 8a3d 727a 951c 653f c243 522f 5ae1 813f
00000150: 391a 26d5 3251 803f 669a 0957 3efb 61bf
00000160: b98a 471a 6846 753f e73b 35e6 8891 79bf
00000170: 0788 a399 d9df 69bf a16b bbe2 382e 8ebf
00000180: 77d1 c46c 89ca 923f 8b0e bd09 b7e1 90bf
00000190: d932 8720 2f76 783f e01f 9667 c6ac 52bf
000001a0: ef8f e500 38c4 843f cceb 408d d02a 63bf
000001b0: 578b db7d 4f13 2e3f 71b1 2be7 5a1f 7ebf
000001c0: 8978 f6c0 ad63 683f 7a4c 7db3 c4ce 61bf
000001d0: bb99 4756 1c19 923f 772c f2fe f18f 98bf
000001e0: 3ee2 258b a76b 443f ebcb 4583 a748 603f
000001f0: 80b6 b307 fd8c 883f 6cff db49 5cee 723f
00000200: 6675 02fa aea6 30bf 0032 5410 f2e1 6ebf
00000210: 34d0 995c 1268 28bf 087b 52b1 7913 79bf
00000220: 0ff6 342b 0c2e 8f3f 1e94 be23 8bb1 98bf
00000230: 6052 9843 6727 76bf 2075 1232 2a1d 6c3f
00000240: b335 c5da 575f 8a3f 6ba6 53f8 0bb0 933f
00000250: 0068 8346 bd00 223f 6651 1530 4123 7dbf
00000260: b3cb be99 8f93 583f 0bd4 c533 7641 93bf
00000270: 079a 7617 d767 913f 02d0 9625 4f64 97bf
00000280: 16be f57f 0bf1 72bf ab96 3e81 3108 813f
00000290: 7f3d 1295 891b 803f 1e2b e9ad f908 8c3f
000002a0: 5faa 7c85 33cf 6f3f d9b8 8f91 caf8 8abf
000002b0: 3690 bc78 ad95 923f 56a3 966c d6d5 9abf
000002c0: 8cfc 9074 2174 873f 81d2 1b8f efcf 93bf
000002d0: 30d6 1d6a 7776 79bf c736 5c83 8c33 843f
000002e0: cc53 47e9 57b5 673f b6a3 2b7d ae44 883f
000002f0: d2da 2137 0238 843f ecf8 5b1d 9c47 62bf
00000300: 625a 75d8 1af2 8f3f 8f5f 9e1b b023 97bf
00000310: 0b38 79c0 ab78 803f c953 0f86 40ba 9bbf
00000320: b3ef 16bb 6130 79bf b0ab 7b62 b54d 713f
00000330: 36f8 dc47 4f2f 243f 225c 91a0 2ac9 893f
00000340: 8503 f821 fc3f 833f d6ea 2601 73b9 853f
00000350: 948d 8225 6577 853f eff9 c332 d7ba 97bf
00000360: 1fa7 9c9a 070d 803f e88e 0b87 fe97 9abf
00000370: 5072 a828 5be5 30bf 774c ff0e 3564 6f3f
00000380: cbd1 7dc9 add7 613f 845f 2b80 c670 963f
00000390: 4a91 c654 ae15 593f a502 5093 187b 803f
000003a0: 0727 28ce f152 44bf 07da bf98 e684 90bf
000003b0: e5a4 2274 e62b 6e3f 50c9 5a99 5bc2 98bf
000003c0: 7225 5874 fb2c 71bf f679 66a7 af8d 993f
000003d0: 038a c6fa 3db4 6fbf fee7 21b6 a139 943f
000003e0: 0ecd 371d 31e5 69bf cdbb 9953 28d5 59bf
000003f0: ca3d 4bed 8c3c 46bf 26de b805 e7f8 8ebf
00000400: e8e4 d6c3 9f7a 3b3f 1b63 0587 a9ea 90bf
00000410: 36f3 75de 0528 64bf bedf 33bb fbe7 963f
00000420: 08c0 18c2 1b3a 563f 80d7 6327 e478 8b3f
00000430: eacd 9f8b 8bc2 45bf e7a1 0060 984b 82bf
00000440: 2bb1 5138 3599 883f 528a 64e3 8027 9abf
00000450: e12d 6854 307f 6d3f 0e60 2d81 df07 8fbf
00000460: 6232 b4a8 83c4 74bf e710 e146 d396 8f3f
00000470: 797e 5ab5 316b 813f ff0f a3d5 b4cc 8a3f
00000480: 83b3 e1f7 ab7a 823f 0b1d 6dc9 568c 87bf
00000490: 105d b9f2 922c 553f 281b 17cf 752e 9abf
000004a0: 7ffa 444f 1bd6 6e3f 9508 494d 6956 82bf
000004b0: 150a f5e8 1999 7fbf 16a5 ed21 1931 853f
000004c0: 854b 1d46 6ccb 933f 296e 1480 c431 933f
000004d0: 8c62 7da5 e978 8a3f 6ea1 2798 2f87 8dbf
000004e0: ad69 8529 41d0 86bf 7c92 b7ef df0c 99bf
000004f0: f6ea d48c 2bab 7c3f 1394 3ac8 3cbc 85bf
00000500: 9ca3 8e13 41b2 84bf 66b1 debe c884 883f
00000510: 860d 9fb5 0ec8 833f be96 2d2b 0233 8b3f
00000520: 5dce 854c 48e6 873f 5aa6 8b49 1728 89bf
00000530: 2437 6733 c8f3 73bf 1eef d47b fb8d 96bf
00000540: 8acb be57 4326 853f 5772 0e07 8f32 7fbf
00000550: fd96 4c42 9b7c 83bf 1656 f178 fc68 793f
00000560: 6343 0c65 23e5 503f d319 bff6 8156 703f
00000570: 4c60 918a aab5 873f 9b66 67e4 cdb2 71bf
00000580: f22c d535 97fd 5f3f 07b9 fca1 3d8a 91bf
00000590: 7173 58ab deaa 783f 583e 5ea7 bc7c 283f
000005a0: 5457 2b64 964a 88bf a34e 1f09 dd3b 573f
000005b0: 722a 9677 884b 88bf c50b 25ba f23e 963f
000005c0: d816 fd88 8a67 853f bc19 e38a 9721 5bbf
000005d0: 12a9 8f3e 3a67 863f ed1e 07bd acd7 8dbf
000005e0: b779 20e9 1956 37bf 6bd8 f10e 3856 71bf
000005f0: 7724 bee6 929d 8bbf cc02 4a92 91c5 793f
00000600: 642d fa99 481f 87bf 3c6d 6019 d50a 953f
00000610: db72 dc77 ff13 8b3f 3064 c729 1fa8 503f
00000620: 0a4c a783 cd67 773f 680a 0253 d699 82bf
00000630: 3e4e e815 e360 60bf 5ac3 b4bd 3a65 86bf
00000640: e821 9277 957b 80bf b279 19cb 295d 863f
00000650: 2653 0b8d c737 77bf bca2 c15c 958a 893f
00000660: 2103 9aa2 e5ab 793f 1284 d927 7d42 763f
00000670: 6e33 b74f 717b 683f 315d ef72 d509 90bf
00000680: 163d f279 5383 793f 24bb d8a5 8c92 8ebf
00000690: 7bcd c2c5 db9c 8bbf 816e 3eb0 94fc 873f
000006a0: ca31 adec 51e5 4a3f c8ab 43be b3ff 833f
000006b0: 420b e525 a326 623f b948 b10f e279 8b3f
000006c0: a466 839d 6038 72bf 8050 6801 66fa 8dbf
000006d0: 6ac8 ae9c a8de 8d3f 34ae 2c22 026c 94bf
000006e0: aa31 b5b6 cee5 8abf d669 412e 7ec9 833f
000006f0: 1c62 594d bbdd 683f 7fff 4ab7 325a 8a3f
00000700: c3d4 402c 8e0d 6b3f 6586 d6fb 96d6 813f
00000710: 87f4 b680 1058 76bf f7d6 c29c ad18 86bf
00000720: 6251 ffa0 c6b1 883f f32e 3bcd 8abd 94bf
00000730: 1f5d 66f6 7f30 85bf f5b5 69ab 8bfe 853f
00000740: 24ca 92c2 8476 433f a9ff 04cb 119e 9d3f
00000750: fd36 c324 1367 62bf 868f 1535 fcc6 6b3f
00000760: 993d 5057 00e1 7cbf bd7b c346 68a3 75bf
00000770: a578 4ecc b8b6 863f 6d0d d563 4f87 9ebf
00000780: 2080 6538 b866 83bf b56a 6c28 e0ca 763f
00000790: 6338 dee9 add0 723f 3e91 b17e 1fb2 9f3f
000007a0: 6eb2 b8a2 d971 80bf 922c 133d 235f 623f
000007b0: f4b5 6c0c a2cb 74bf 5dd5 4c21 6f07 21bf
000007c0: 157b 7757 5a84 883f 91e7 6801 ccb2 a0bf
000007d0: 153a a6be 9450 88bf 5808 131a 75bb 693f
000007e0: 0cf6 1f86 d7ca 4bbf facd a682 029a 9e3f
000007f0: ca16 7efb 0b62 51bf c807 e6bf 6e01 71bf
0.007348162548750702 0.0019713269704398234 0.0003014575046927067 -0.009875631328484697 -0.023013264200697225 -0.01324449981000809 0.008258941235387339 -0.002089860083138624
0.02898983250390743 0.0013523723503758 -0.0006759663288106954 0.004736630194008956 0.01319346729642742 0.0008408861764685565 -0.009182855610068897 -0.028781180462850407
0.012305150405147921 -0.010449514559692263 0.023339322143582798 -0.005327196437548834 -0.007673624438974727 0.005048976231313952 0.021313321215995367 0.0027167447567136966
-0.0016088669902591956 -0.023089960114032363 0.012145111347551887 -0.010469641566936114 0.016524158244929466 -0.014905337587326362 -0.004347397134183948 0.005269925484328257
0.015678329518497583 -0.00010931313117923225 0.0006462777338479949 -0.009146057050848658 0.0026626416733945488 -0.012748700290801662 0.01935981368668559 -0.01726897736322414
0.002577106427970659 0.008730606621868978 0.007967373971735291 -0.002194997556489486 0.005194098139755959 -0.006242308390326002 -0.0031584978106460357 -0.014736599368395721
0.01835074163791847 -0.01648603436411959 0.0059720841313264045 -0.0011398255868204574 0.010139882590642883 -0.002339751556090763 0.0002294573341066984 -0.00735412129391154
0.002977218020261911 -0.0021737901514967102 0.017673914686292962 -0.023986607728641886 0.0006231849750256214 0.0019877692922647314 0.011987664029642575 0.0046218495388073814
-0.0002540757359471207 -0.0037698486145301136 -0.00018620704786409677 -0.006122088777515307 0.015224547451562235 -0.024114774758022255 -0.005408671736877396 0.0034318756230066333
0.012877165187684314 0.019226252586042863 0.00013735113612406424 -0.007113699569647336 0.0015000250195782272 -0.01880440417285815 0.01699768143375915 -0.022843586606271067
-0.0046244096005092685 0.008316408879021372 0.007865023481172127 0.013688994045101984 0.0038829809453962273 -0.013169844214612801 0.018149099821258306 -0.02620635068675211
0.01145197045309334 -0.01934789954153127 -0.006216494048080487 0.009863946684642312 0.0028940884605881175 0.011849749750995158 0.00987245302915821 -0.002231411849492484
0.015598497134005022 -0.02259707611628375 0.008042661486936017 -0.02707768266903424 -0.006149656067858378 0.004224499258024858 0.00015399782926722873 0.012590725922718763
0.009399385248799916 0.010607622597367177 0.010481634337628866 -0.023173677896005825 0.007837352186089995 -0.025970437042714872 -0.00025781131322036733 0.0038319622326326535
0.0021780390051679747 0.02191457898410888 0.00153104805495115 0.008047286983129462 -0.0006202393236105227 -0.016131976197323563 0.003683042626182786 -0.024178916201614442
-0.004193289035819491 0.02495455226164186 -0.00387012582196289 0.019751097432596502 -0.0031610450039295584 -0.0015766996206385442 -0.0006786049003383806 -0.015123181211591574
0.0004192962695373629 -0.016520165315657125 -0.0024604906681688033 0.022369321156446402 0.0013566275669170142 0.013414175464713685 -0.0006640607236917926 -0.008933248929751293
0.012010970860693767 -0.025541318777991436 0.003600687402700351 -0.015151735429455495 -0.0050702231340094845 0.015424395180283003 0.00850523791024148 0.013085758943255142
0.00902304029679058 -0.01149814417079977 0.001292365554851408 -0.025567856564317953 0.0037642033950356364 -0.008953879042682448 -0.007714368067640827 0.010347553584966234
0.019330684451527986 0.01874453574883553 0.012925935137603227 -0.014418002921005448 -0.011139401511788128 -0.024463175779504173 0.006999178044959411 -0.010612940655230252
-0.010105617913568392 0.01197201569069568 0.009658923070566382 0.013280884688082192 0.011669697604452961 -0.012283498699122198 -0.004871160539961204 -0.02202599471387067
0.010326887240671007 -0.0076165759100175956 -0.009515011750021335 0.006203638287009669 0.0010311933185144998 0.003988750144293412 0.011576969484096498 -0.004320911661545824
0.001952550569813746 -0.017128909122384985 0.006022329141640679 0.00018682291891679542 -0.011861014301228025 0.0014180811453926932 -0.011862817906849819 0.02172450314652587
0.01045139532619592 -0.0016559581668374864 0.010939078363624097 -0.014571523207350856 -0.0003560841806819164 -0.004232615449941783 -0.013484141985616411 0.006291931761211966
-0.011290137480748093 0.020549134897106955 0.013221736760493588 0.0010166458442795283 0.005714228429911658 -0.009082483680917977 -0.0019993243470340085 -0.010935267366763025
-0.00804821749831404 0.010919882307629834 -0.005668429847635525 0.012471358197403297 0.006267449390748665 0.0054345024960591615 0.0029885495293683817 -0.015662512912823338
0.006228757934095405 -0.014927958308445684 -0.013482777569470574 0.011712228420768913 0.0008207941076335209 0.009765056842715128 0.0022156893238912964 0.01341606722249754
-0.004448296931707372 -0.014637753408387022 0.014584843904092721 -0.019943269096229524 -0.013133635474013545 0.009661660944563371 0.0030354173893949576 0.012867351740510234
0.003302362138152577 0.008710078773961525 -0.005455078567533473 -0.01078925737997903 0.012057830608605161 -0.02025429608947511 -0.010346412379290513 0.010739413422210279
0.000593962501758864 0.028923299805000777 -0.0022464155100355696 0.0033907819676403687 -0.007050515491769182 -0.005282790498511267 0.011090701804104272 -0.029813042133594637
-0.009473265858730484 0.00556457101518031 0.0045935433862621415 0.030952922923817676 -0.008029651907315496 0.002242630791987895 -0.005077012064061293 -0.00012992126053183286
0.011971193117401616 -0.03261411206444998 -0.01187244612517894 0.003141144480282281 -0.0008481552470127065 0.02988437578615153 -0.0010609738364747872 -0.00415175687374076
