DeepLearning for ComputerVison/project/A3/one_minute_deepconvnet.pth (torch, 103604 bytes, 8 tensors)

W0 f4 [32, 3, 3, 3]
0.13996236 0.17581429 0.068126015 0.3104857 0.43510363 0.27680477 0.1995171 0.35326657
0.10590293 -0.14208777 -0.15160915 -0.11806791 -0.21733248 -0.22695811 -0.13377608 -0.17345357
-0.21079415 -0.15447699 0.075287394 -0.059152406 0.10216824 -0.15063784 -0.33228478 -0.20457408
-0.013345827 -0.22337756 -0.16811627 0.12716882 0.14794132 0.28347304 -0.002130097 -0.056667075
0.013541085 -0.2100512 -0.17875463 -0.05777201 0.027440768 -0.05057562 0.036998972 -0.03443779
-0.05337341 -0.076636426 -0.15836097 -0.09552433 -0.070464626 -0.012900715 -0.033033304 -0.04093875
0.123340085 0.15684862 0.01586224 -0.027257688 0.06446234 -0.01613671 0.2717398 -0.02393413
-0.21413116 0.2551581 -0.14753455 -0.29767108 0.17264912 -0.23552768 -0.18037169 0.1412164
0.015892245 -0.215579 0.22620475 -0.005734431 -0.22057728 0.17453657 -0.09758358 -0.07742028
0.13937782 0.17984955 -0.10337257 0.24427365 0.09772706 -0.20630145 0.10958526 -0.07022246
-0.09836726 -0.24119104 -0.14013794 0.22913511 -0.23985577 -0.25288153 0.087496586 -0.24061154
-0.32279494 -0.04270527 -0.026348053 0.0514092 0.2278106 -0.045576774 0.043291833 0.21172173
-0.11720662 -0.088702545 0.12700441 -0.03134205 0.035486992 0.12022036 0.0500252 0.11044576
0.17911743 -0.037522558 0.0829903 0.20912966 0.011942062 0.22343725 0.19624823 -0.017334055
0.215054 0.1719454 -0.015169596 0.2525036 0.1824851 -0.3398399 -0.21083423 -0.13223124
-0.28081548 -0.16587989 -0.082366444 -0.32514384 -0.17173214 -0.13434607 0.0007863284 0.12315443
0.17938 -0.017135754 0.08558704 0.13277382 -0.11466677 0.034952942 0.07882584 0.26229063
0.3372893 0.28606007 -0.01303535 0.22515602 0.061995838 -0.13738196 0.029487625 -0.039135437
-0.28382638 -0.20197025 -0.15242521 -0.36223537 -0.17903534 -0.28421792 -0.23221567 -0.09940635
-0.113421954 0.029988773 -0.024027174 -0.14115739 0.06427523 0.132258 -0.1640899 0.342011
0.37869656 0.19011992 0.2879502 0.15174058 0.08987026 0.22992101 0.060617145 -0.04324853
0.12056894 -0.09338577 -0.3000337 -0.033435557 -0.17601483 -0.19610883 -0.036572635 -0.16667233
-0.22343889 -0.042159736 -0.23027542 -0.34837952 0.1267579 0.027290925 0.02195483 0.09651601
0.008165462 -0.01673566 0.14432053 -0.047451757 -0.11849336 0.0040747495 -0.043255296 0.13097556
-0.060840543 -0.09004968 0.26742333 0.062921405 0.017091956 0.21299285 -0.20361845 -0.21482676
0.04623089 -0.16522543 -0.22935708 0.1311134 -0.11235757 -0.20239754 0.010727612 -0.12580983
-0.056209166 0.18478435 -0.10929294 -0.108066514 0.27592155 0.012519801 -0.028803557 0.19317147
0.10098886 -0.41004813 0.051012352 0.27813148 -0.36400902 0.11938959 0.20857923 -0.37433338
0.12070801 0.06414907 -0.41507888 0.12091408 0.3335472 -0.29764706 0.28910357 0.15092576
-0.40461144 0.20058583 0.09610107 -0.24211939 0.12463429 0.26393145 -0.20353965 0.23137087
0.1285314 -0.29370382 0.19477235 -0.11410046 -0.11858355 -0.06655531 0.22597677 0.41468045
0.2878787 -0.094602525 -0.36164063 -0.21062684 -0.053456567 -0.07002363 0.0106855435 0.2987352
00000000: 4b52 0f3e a908 343e a785 8b3d fbf7 9e3e
00000010: e7c5 de3e 5bb9 8d3e 364e 4c3e 5bdf b43e
00000020: a3e3 d83d 757f 11be 6e3f 1bbe 97cd f1bd
00000030: 688c 5ebe b567 68be 99fc 08be d09d 31be
00000040: 6cda 57be 372f 1ebe 4730 9a3d cb49 72bd
00000050: 953d d13d ce40 1abe 3b21 aabe de7b 51be
00000060: 75a8 5abc 16bd 64be ac26 2cbe 8b38 023e
00000070: ee7d 173e 6123 913e 1999 0bbb bc1b 68bd
00000080: 6ddb 5d3c a917 57be 740b 37be 58a2 6cbd
00000090: 76cb e03c 6228 4fbd 3c8c 173d a40e 0dbd
000000a0: 149e 5abd 8ff3 9cbd 6129 22be 43a2 c3bd
000000b0: c24f 90bd 855d 53bc ee4d 07bd 64af 27bd
000000c0: ba99 fc3d ed9c 203e 87f1 813c 844b dfbc
000000d0: d504 843d 2231 84bc 7b21 8b3e 8211 c4bc
000000e0: 3345 5bbe 15a4 823e 4c13 17be 5868 98be
000000f0: eeca 303e 2b2e 71be 5bb3 38be 089b 103e
00000100: 7430 823c bec0 5cbe 38a2 673e e5e7 bbbb
00000110: 03df 61be b7b9 323e e6d9 c7bd 868e 9ebd
00000120: 0fb9 0e3e 7b2a 383e ffb4 d3bd df22 7a3e
00000130: 2025 c83d b040 53be 3d6e e03d cbd0 8fbd
00000140: c674 c9bd c9fa 76be 5280 0fbe 65a2 6a3e
00000150: c09c 75be b079 81be 6931 b33d df62 76be
00000160: 6145 a5be b9eb 2ebd dfd7 d7bc 7492 523d
00000170: 2f47 693e b6ae 3abd c752 313d 95cd 583e
00000180: 060a f0bd aea9 b5bd 720d 023e 8560 00bd
00000190: cf5a 113d 1836 f63d 39e7 4c3d 6331 e23d
000001a0: 8f6a 373e 41b1 19bd d2f6 a93d 1626 563e
000001b0: a3a8 433c bccc 643e 4cf5 483e 2600 8ebc
000001c0: 1e37 5c3e 7412 303e e689 78bc 2748 813e
000001d0: 60dd 3a3e 7fff adbe eee4 57be a067 07be
000001e0: 0cc7 8fbe 6bdc 29be bdaf a8bd 4179 a6be
000001f0: 8dda 2fbe 0492 09be 9b21 4e3a 6438 fc3d
00000200: 64af 373e 4860 8cbc 4248 af3d dcf5 073e
00000210: 69d6 eabd d12a 0f3d 716f a13d f54a 863e
00000220: 2fb1 ac3e 7776 923e 3892 55bc 4d8f 663e
00000230: 59ef 7d3d dbad 0cbe 0890 f13c 7b4c 20bd
00000240: b151 91be 4ad1 4ebe 5b15 1cbe ea76 b9be
00000250: 0a55 37be 0385 91be f2c9 6dbe 8e95 cbbd
00000260: c549 e8bd 04ab f53c a3d4 c4bc 908b 10be
00000270: bba2 833d a46e 073e 2f07 28be 111c af3e
00000280: 84e4 c13e ccae 423e 356e 933e e261 1b3e
00000290: e60d b83d 6a70 6b3e af49 783d 5f25 31bd
000002a0: d9ec f63d 0a41 bfbd 049e 99be b9f3 08bd
000002b0: 3b3d 34be c1d0 48be 30cd 15bd 27ac 2abe
000002c0: 2acd 64be b0af 2cbd 52cd 6bbe cd5e b2be
000002d0: d3cc 013e 3891 df3c 9eda b33c 30aa c53d
000002e0: 6ec8 053c 3919 89bc c3c8 133e c65c 42bd
000002f0: a6ac f2bd 7a85 853b 772c 31bd 751e 063e
00000300: ef33 79bd f76b b8bd b6eb 883e f0dc 803d
00000310: 6e04 8c3c cc1a 5a3e 5b81 50be 8cfb 5bbe
00000320: 9a5c 3d3d db30 29be 95dc 6abe 9742 063e
00000330: ba1b e6bd 4d41 4fbe dec2 2f3c 4bd4 00be
00000340: 953b 66bd 1c38 3d3e fad4 dfbd fa51 ddbd
00000350: 9745 8d3e da1f 4d3c 70f5 ebbc bece 453e
00000360: 3fd3 ce3d d4f1 d1be 54f2 503d 4067 8e3e
00000370: 645f babe 8882 f43d cb95 553e a0a8 bfbe
00000380: c335 f73d 9660 833d 3885 d4be cda1 f73d
00000390: b3c6 aa3e 3265 98be 6205 943e 488c 1a3e
000003a0: 3b29 cfbe 5f66 4d3e a3d0 c43d 25ee 77be
000003b0: 4340 ff3d 0622 873e b36c 50be 7cec 6c3e
000003c0: bc9d 033e 5960 96be 6772 473e 81ad e9bd
000003d0: efdb f2bd 264e 88bd 7466 673e ff50 d43e
000003e0: d664 933e f8be c1bd f628 b9be 90ae 57be
000003f0: 46f5 5abd 8d68 8fbd 6b12 2f3c d2f3 983e

b0 f4 [32]
-0.16213219 -0.021163017 -0.2726411 -0.22950168 -0.010791335 -0.09446525 -0.24702606 -0.1256543
-0.08306308 -0.03615146 -0.04166974 -0.019966109 0.034178097 -0.11475281 -0.00839986 -0.07115797
-0.043850165 -0.017650839 -0.38002178 -0.029471977 -0.038253356 -0.106352285 -0.41859367 -0.049894053
-0.2767846 -0.013385506 -0.0802247 -0.040662736 -0.06824668 -0.06417171 -0.028418243 -0.19799699
00000000: fb05 26be 105e adbc 9d97 8bbe 7d02 6bbe
00000010: 24ce 30bc ff76 c1bd 66f4 7cbe 85ab 00be
00000020: fa1c aabd 8e13 14bd e4ad 2abd f78f a3bc
00000030: 55fe 0b3d 8503 ebbd 919f 09bc 45bb 91bd
00000040: 3b9c 33bd 7e98 90bc 3792 c2be 376f f1bc
00000050: 8daf 1cbd 3acf d9bd e951 d6be b55d 4cbd
00000060: b6b6 8dbe e24e 5bbc d94c a4bd f88d 26bd
00000070: eac4 8bbd 756c 83bd 60cd e8bc b9bf 4abe

W1 f4 [16, 32, 3, 3]
-0.16561459 -0.10957772 0.06918066 0.0094326865 -0.016147017 -0.016831748 0.13571498 0.057736825
0.12296312 0.0009183606 0.11637592 -0.05386745 -0.09109623 -0.022875356 -0.05832085 0.23464535
0.19768533 0.11316338 0.00034845472 -0.09829744 -0.2656112 -0.30821866 -0.57081085 -0.18651196
0.021358034 -0.20677489 0.04420382 -0.089426905 0.010073132 -0.24664773 -0.19946323 -0.25181872
-0.12775183 -0.027566189 0.32035258 0.3304183 0.1260822 0.079559706 0.13099435 -0.00940302
-0.15361653 0.010864148 -0.09735786 -0.0524396 0.0847314 0.14207669 -0.13888761 0.024352347
0.19328235 0.08817185 0.23728272 0.16303045 0.088611074 0.0682688 0.25974566 0.193632
-0.11194811 0.10363574 -0.012497931 -0.16884142 -0.020328125 -0.14638923 -0.36067182 0.03823335
0.081486866 -0.08238747 -0.09748829 -0.06006887 0.031038264 -0.13628009 -0.24162714 0.03198169
0.38938358 0.24320509 0.15299447 -0.025895493 -0.15132935 -0.24126743 -0.18681929 -0.26142818
-0.10490696 0.30972776 0.43654385 0.053372458 0.59521437 0.33744037 0.5894303 0.24856496
0.5195636 0.40290827 1.1797528e-38 -1.1557757e-38 6.821632e-39 -4.549356e-39 1.038675e-39 5.783226e-39
-3.080672e-39 -1.9988e-40 -4.595024e-39 -0.09616356 -0.06568226 -0.018621359 -0.0044757593 0.11702094
0.17091092 0.10032716 -0.03161599 -0.033146247 0.21622556 0.032262687 -0.19811529 -0.13052136
-0.15679121 -0.019214254 -0.0897335 -0.0007375095 0.08889504 0.156646 0.08406551 0.2629247
-0.22942942 -0.13626452 0.06644494 -0.2274008 -0.059893 0.1752691 0.09267547 0.14109786
0.081731744 -0.45054528 -0.1798925 -0.09386988 -0.41329995 -0.24959788 0.083386205 1.7701253e-17
1.2689248e-16 1.1965484e-17 3.2383782e-16 -3.5361284e-14 8.460562e-15 2.1575903e-15 -1.1913353e-15 -1.3785149e-16
-0.044087015 -0.14653209 -0.054518417 -0.17964004 -0.54353774 -0.25006562 -0.32109773 -0.21576174
-0.016805857 0.21277279 -0.17244469 0.19831842 -0.21327831 -0.31876495 -0.06412264 -0.28572515
-0.55513334 -0.09734491 0.21271399 0.06475874 -0.21841769 0.28407478 0.026144482 0.16871107
0.14546755 0.092063665 -0.1313996 0.13621333 -0.13521425 0.22383867 -0.23401594 -0.49655548
-0.1308788 -0.056164533 -0.46440843 -0.24882537 0.05361827 0.005246184 0.2136852 -0.2600727
-0.17046048 0.054220073 -0.07226836 -0.39537212 -0.12307442 0.071536414 -0.042473424 -0.14010032
-0.1356368 -0.18238921 -0.039998576 0.09036959 0.29455873 0.5622615 0.30627108 0.047565322
-0.112380594 0.16319197 -0.07625072 -0.013619692 -0.058660865 -0.010757213 -0.1142957 0.0969183
0.115642466 0.23324406 -0.18052396 -0.085112765 -0.0015688651 -0.23040065 -0.07500957 -0.12228513
0.16029733 -0.12929703 -0.19530152 0.10860646 0.09453646 0.19140454 0.0051675765 -0.12060344
0.19550684 -0.049504977 -0.11795717 0.24498719 -0.1955588 -0.35205534 0.14290261 -0.18255538
-0.23448992 0.20760144 -0.0110019725 0.03601198 -0.0068335664 -0.09991243 0.10742735 0.12973697
0.26667005 0.36597613 0.22521225 0.053506877 0.1264636 0.12575029 0.15785615 0.11584579
0.069603704 0.50272286 0.36014098 0.3150501 0.035711423 -0.04766962 0.10116968 0.004562901
00000000: df96 29be 496a e0bd 97ae 8d3d 8e8b 1a3c
00000010: c046 84bc bce2 89bc def8 0a3e 737d 6c3d
00000020: 17d4 fb3d 23be 703a 8056 ee3d 1ea4 5cbd
00000030: a990 babd 1965 bbbc d8e1 6ebd df46 703e
00000040: 066e 4a3e 34c2 e73d cdb0 b639 2b50 c9bd
00000050: 31fe 87be d6ce 9dbe a920 12bf fefc 3ebe
00000060: 0bf7 ae3c ccbc 53be 110f 353d 7425 b7bd
00000070: c709 253c 3991 7cbe 1740 4cbe 62ee 80be
00000080: 60d1 02be 7dd2 e1bc 4105 a43e 962c a93e
00000090: b11b 013e 33f0 a23d 6223 063e 200f 1abc
000000a0: a74d 1dbe 8aff 313c 8f63 c7bd e8ca 56bd
000000b0: a887 ad3d 8d7c 113e 8e38 0ebe 937e c73c
000000c0: cfeb 453e 7193 b43d 3efa 723e 74f1 263e
000000d0: b979 b53d 83d0 8b3d 62fd 843e 7847 463e
000000e0: 0d45 e5bd fa3e d43d 1fc4 4cbc c4e4 2cbe
000000f0: 2b87 a6bc 0fe7 15be faa9 b8be 939a 1c3d
00000100: 96e2 a63d c3ba a8bd f1a7 c7bd c70a 76bd
00000110: f543 fe3c 028d 0bbe 1b6d 77be 3cff 023d
00000120: 495d c73e c10a 793e 95aa 1c3e c922 d4bc
00000130: 15f6 1abe cf0e 77be 8e4d 3fbe ead9 85be
00000140: 76d9 d6bd a394 9e3e ad82 df3e 149d 5a3d
00000150: f85f 183f fcc4 ac3e e7e4 163f d087 7e3e
00000160: 1f02 053f fe49 ce3e b576 8000 53da 7d80
00000170: ef47 4a00 c189 3180 674f 0b00 48f9 3e00
00000180: a98b 2180 2f2d 0280 0f09 3280 67f1 c4bd
00000190: 6c84 86bd d28b 98bc 64a9 92bb ada8 ef3d
000001a0: 4603 2f3e 5378 cd3d c57f 01bd 5cc4 07bd
000001b0: 3c6a 5d3e e125 043d bcde 4abe 64a7 05be
000001c0: e08d 20be 3667 9dbc 32c6 b7bd 6d55 41ba
000001d0: 9a0e b63d cf67 203e 8a2a ac3d 119e 863e
000001e0: 8cef 6abe ed88 0bbe 4914 883d c1db 68be
000001f0: 5d52 75bd be79 333e a3cc bd3d f57b 103e
00000200: f962 a73d dfad e6be bd35 38be da3e c0bd
00000210: 0d9c d3be 9696 7fbe 63c6 aa3d e743 a323
00000220: 0d4c 1225 67b9 5c23 07ae ba25 c940 1fa9
00000230: 7569 1828 8478 1b27 84b0 aba6 94ee 1ea5
00000240: 9694 34bd 820c 16be b44e 5fbd 8ff3 37be
00000250: 4a25 0bbf 9a08 80be ec66 a4be a5f0 5cbe
00000260: 70ac 89bc 1ce1 593e 5795 30be fc13 4b3e
00000270: a165 5abe 2935 a3be bb52 83bd 914a 92be
00000280: 381d 0ebf c55c c7bd b2d1 593e 3ba0 843d
00000290: e3a8 5fbe 4072 913e f42c d63c 98c2 2c3e
000002a0: 72f5 143e e08b bc3d 9e8d 06be 827b 0b3e
000002b0: 9b75 0abe f735 653e e0a1 6fbe 853c febe
000002c0: 1805 06be c80c 66bd f1c6 edbe 14cc 7ebe
000002d0: d59e 5b3d 2ee8 ab3b 4bd0 5a3e 4028 85be
000002e0: 318d 2ebe de15 5e3d 6f01 94bd 376e cabe
000002f0: 710e fcbd af81 923d 9df8 2dbd 7576 0fbe
00000300: 60e4 0abe 3dc4 3abe 8cd5 23bd b113 b93d
00000310: 67d0 963e 5ff0 0f3f 90cf 9c3e dbd3 423d
00000320: cc27 e6bd cc1b 273e 5629 9cbd 2125 5fbc
00000330: 6046 70bd 063f 30bc dd13 eabd 1a7d c63d
00000340: f5d5 ec3d 88d7 6e3e 46db 38be 9a4f aebd
00000350: 61a2 cdba 26ee 6bbe 9e9e 99bd a070 fabd
00000360: fc24 243e 7166 04be 1ffd 47be 106d de3d
00000370: 559c c13d 8dff 433e c654 a93b f0fe f6bd
00000380: f232 483e bbc5 4abd 8793 f1bd ecdd 7a3e
00000390: 9140 48be 9940 b4be 1055 123e ccef 3abe
000003a0: 201e 70be 7995 543e 9e41 34bc 4c81 133d
000003b0: 1cec dfbb e39e ccbd df02 dc3d c5d9 043e
000003c0: fa88 883e 3961 bb3e 0a9e 663e 072a 5b3d
000003d0: ad7f 013e afc4 003e 0ba5 213e 8f40 ed3d
000003e0: 638c 8e3d 72b2 003f 6664 b83e 3f4e a13e
000003f0: 2446 123d 3841 43bd 0d32 cf3d 6384 953b

b1 f4 [16]
0.04458663 0.10074942 -0.14115404 0.067452334 0.023741085 0.24653615 -0.017894361 -0.12145603
-0.01794917 -0.12721887 0.0034115056 -0.01410545 0.25323647 -0.20075636 -0.01797292 -0.11938821
00000000: 78a0 363d b655 ce3d af8a 10be 7324 8a3d
00000010: aa7c c23c f973 7c3e 3297 92bc f0bd f8bd
00000020: 230a 93bc aa45 02be 9193 5f3b 8c1a 67bc
00000030: 36a8 813e 1393 4dbe f23b 93bc ce81 f4bd

W2 f4 [64, 16, 3, 3]
-0.053547755 0.07740332 -0.014981483 -0.11970977 -0.00030871428 -0.24082522 -0.06252757 -0.09282333
-0.1722171 -0.10948391 0.1871659 -0.20830053 0.20321286 0.14576554 -0.21172245 0.2095774
0.14334673 -0.100745454 0.29565448 0.12975658 0.15756176 0.20125358 -0.0447593 -0.21364905
-0.26624385 -0.11186202 -0.10370465 -0.056317322 -0.03425792 0.0045886235 -0.08898488 -0.12822078
-0.022115882 0.013714981 -0.12181463 0.18457848 -0.3523401 -0.2460476 -0.17508964 -0.15300667
-0.20154 -0.38535127 0.11669553 0.05465975 -0.3241524 0.05890344 0.17350493 0.099864386
0.30886644 0.010881651 0.31834126 -0.07218539 -0.12535742 0.03340609 -7.3861125e-38 3.2522837e-38
1.0953805e-37 7.947489e-38 1.0739373e-37 -1.1600883e-37 5.4333666e-38 7.3329814e-38 -1.0506768e-38 0.27722916
0.22877313 0.105751425 -0.024143016 -0.45242745 -0.25725073 -0.028959988 -0.01683879 -0.13086192
-4.764203e-38 8.5378246e-38 2.8486615e-38 4.7746947e-38 -3.302799e-39 -2.9852567e-38 2.7509901e-37 -6.7636114e-38
3.49791e-39 0.119372815 0.30555803 -0.03395457 0.26177788 0.22742555 0.26522207 0.016682828
-0.37582624 -0.024055758 -0.64939475 -0.4937294 -0.10233398 -0.58778894 -0.5617008 -0.3289439
0.4248464 0.28218672 0.16078739 4.2570023e-17 3.2558205e-16 1.3751253e-18 -1.9695697e-16 8.617564e-15
2.4617824e-16 -1.6337898e-16 -1.4525285e-15 -8.062856e-16 -0.1617334 -0.27280226 0.012923705 -0.025668813
-0.2601943 -0.44161096 0.14919612 0.02248924 -0.15607022 -0.2951056 -0.19472556 -0.106047474
0.025325598 -0.033214476 -0.24832988 0.34682623 0.10499435 -0.09475452 3.2515236e-38 1.7087205e-37
1.2169464e-38 8.738497e-39 -1.6310943e-37 -3.1695309e-38 4.5319438e-38 -3.9123065e-38 4.6643296e-38 0.13572264
-0.28737956 -0.15313715 -0.070866786 -0.39383292 -0.023733625 0.13025677 0.0020308509 -0.108582124
-0.018814804 0.066797644 0.091794655 0.24353851 0.13021727 0.19697557 0.21386874 -0.059551038
0.10783361 -0.08976824 0.014755473 0.1327944 0.045415334 -0.41713277 -0.21415359 0.039127525
-0.18302806 -0.14060347 -0.06348548 -0.055298522 0.046307713 -0.22451472 -0.012644442 0.050101057
0.1698539 -0.08564402 -0.03903281 0.10238914 0.10800498 -0.019725913 -0.1330504 0.1485304
0.037240084 -0.071134835 -0.0049898736 -0.00474831 0.21202627 -0.0549315 -0.08916628 0.13443512
-0.02532828 0.5560362 0.36702898 0.09931852 0.058773812 -0.072263986 0.066159524 0.30482242
-0.13952067 -0.15781161 -0.068840206 0.401409 0.08410643 0.22581796 2.9271892e-38 -4.3537222e-38
-1.7090062e-37 -5.30741e-38 1.1790405e-37 -2.1663323e-38 -2.513258e-38 -2.52681e-39 -3.3285681e-38 0.1354378
0.2615301 0.11305993 0.16725844 -0.011772602 0.19685484 0.1213965 -0.21612585 -0.14859995
-1.5450864e-37 2.365311e-38 1.1889693e-37 5.7184614e-38 1.3630444e-37 5.4145657e-38 5.527322e-38 7.4251336e-38
-8.307128e-38 -0.10132824 -0.033761714 0.14618264 -0.071121685 -0.31751835 0.23475303 -0.36282238
-0.45958772 -0.27597132 0.17164777 -0.061544962 -0.119025424 -0.17964625 -0.23958808 0.04091613
-0.32685775 -0.3697669 -0.5390157 -4.9874273e-21 3.2127475e-20 -5.384559e-21 -3.5134978e-20 -6.810272e-19
-1.9127179e-18 -9.8466196e-27 -8.930414e-25 -9.460744e-25 -0.098720014 0.058308367 -0.123093784 -0.10916297
00000000: e454 5bbd a285 9e3d e574 75bc 652a f5bd
00000010: eeda a1b9 e39a 76be 740e 80bd 281a bebd
00000020: ae59 30be 1a39 e0bd 6ba8 3f3e bc4c 55be
00000030: 0817 503e 9043 153e c5cd 58be 759b 563e
00000040: 7cc9 123e a253 cebd 0660 973e e9de 043e
00000050: df57 213e 6b15 4e3e 8755 37bd d1c6 5abe
00000060: 1d51 88be ea17 e5bd 1b63 d4bd feac 66bd
00000070: 0852 0cbd 2a5c 963b b43d b6bd 4f4c 03be
00000080: 5e2c b5bc cdb4 603c f379 f9bd 2402 3d3e
00000090: ec65 b4be e7f3 7bbe b34a 33be c8ad 1cbe
000000a0: 8060 4ebe c34c c5be 11fe ee3d e7e2 5f3d
000000b0: 4ef7 a5be bc44 713d 47ab 313e b385 cc3d
000000c0: be23 9e3e f448 323c a0fd a23e efd5 93bd
000000d0: b25d 00be d3d4 083d b111 c981 3812 3101
000000e0: 7118 1502 ea59 d801 412d 1202 2de7 1d82
000000f0: 0ae9 9301 6c9f c701 9868 7280 fbf0 8d3e
00000100: 8143 6a3e 3494 d83d 93c7 c5bc 92a4 e7be
00000110: 5eb6 83be 7f3d edbc 81f1 89bc ab00 06be
00000120: a6b1 8181 f46b e801 8c18 1b01 c4fa 8101
00000130: dcf6 2380 6888 2281 0239 bb02 7e1f b881
00000140: c016 2600 bc79 f43d 1a72 9c3e f213 0bbd
00000150: c007 863e 3ee2 683e 30cb 873e 6daa 883c
00000160: 4c6c c0be 9510 c5bc bc3e 26bf 1aca fcbe
00000170: 7a94 d1bd 5679 16bf a0cb 0fbf 566b a8be
00000180: 7885 d93e c77a 903e 73a5 243e d051 4424
00000190: 6eaf bb25 c4ee ca21 7013 63a5 803d 1b28
000001a0: 7fe9 8d25 f75c 3ca5 d854 d1a6 6065 68a6
000001b0: 719d 25be bdac 8bbe f3bd 533c 6747 d2bc
000001c0: 3038 85be d51a e2be dec6 183e 5b3b b83c
000001d0: dfd0 1fbe 1518 97be 2366 47be 6b2f d9bd
000001e0: a177 cf3c e70b 08bd 304a 7ebe 3593 b13e
000001f0: 4707 d73d a80e c2bd a007 3101 3894 6802
00000200: 8483 8400 6027 5f00 5703 5e82 d090 2c81
00000210: 14be 7601 9801 5581 44f3 7d01 e0fa 0a3e
00000220: 6a23 93be fccf 1cbe 9b22 91bd 78a4 c9be
00000230: 056d c2bc 0862 053e 0618 053b 4e60 debd
00000240: 8121 9abc 34cd 883d d6fe bb3d 2962 793e
00000250: ad57 053e f7b3 493e 6800 5b3e caeb 73bd
00000260: ded7 dc3d 69d8 b7bd f0c0 713c 41fb 073e
00000270: 6e05 3a3d 6d92 d5be 144b 5bbe 2f44 203d
00000280: b56b 3bbe 5bfa 0fbe ad04 82bd b480 62bd
00000290: 28ad 3d3d 30e7 65be a22a 4fbc c436 4d3d
000002a0: 2eee 2d3e 2266 afbd dee0 1fbd 66b1 d13d
000002b0: b731 dd3d 3d98 a1bc 5d3e 08be 5a18 183e
000002c0: 0f89 183d 24af 91bd 1882 a3bb b697 9bbb
000002d0: 6a1d 593e daff 60bd d09c b6bd 5ca9 093e
000002e0: 417d cfbc 6358 0e3f 39eb bb3e 8267 cb3d
000002f0: cfbc 703d 24ff 93bd a57e 873d af11 9c3e
00000300: 82de 0ebe 5e99 21be 18fc 8cbd 7b85 cd3e
00000310: fe3f ac3d d33c 673e 105f 1f01 080a 6d81
00000320: 2d9e 6882 407b 9081 917b 2002 88e4 eb80
00000330: b4d5 0881 b883 1b80 7839 3581 35b0 0a3e
00000340: 46e7 853e f78b e73d cc45 2b3e dfe1 40bc
00000350: 5194 493e ba9e f83d 1850 5dbe 962a 18be
00000360: 674e 5282 a0c7 0001 89d5 2102 dcab 9b01
00000370: 2a87 3902 0466 9301 d077 9601 a121 ca01
00000380: 3c24 e281 2e85 cfbd b949 0abd e7b0 153e
00000390: 3fa8 91bd c491 a2be 1963 703e dbc3 b9be
000003a0: 154f ebbe 1d4c 8dbe 6fc4 2f3e 9216 7cbd
000003b0: 9ac3 f3bd 30f5 37be 9456 75be ac97 273d
000003c0: e659 a7be 1652 bdbe effc 09bf 706b bc9d
000003d0: bcb7 171f 426c cb9d 95eb 259f f600 49a1
000003e0: 3822 0da2 4b08 4394 0431 8a97 de65 9297
000003f0: b82d cabd c1d4 6e3d 9818 fcbd d690 dfbd

b2 f4 [64]
0.36906832 0.26465175 -0.018008852 -0.02383384 -0.017890101 0.11372485 -0.42974952 0.095056385
0.22591175 -0.033728626 -0.018013218 -0.02784757 -0.018011935 -0.02163013 -0.018004697 -0.038145382
-0.100718096 0.3268142 -0.23917873 -0.0322229 -0.018013995 -0.03980428 -0.03250626 -0.019953392
-0.042698286 -0.26410124 0.016864816 0.72189003 -0.052425824 -0.021771971 -0.018065432 -0.019235864
0.16444068 -0.03112099 0.2315309 0.47522318 -0.018002907 -0.018011153 -0.065611385 -0.018011801
0.60846597 -0.07147533 -0.08016234 0.18374631 0.18495888 -0.024044722 0.04928588 -0.026255388
-0.018015295 0.5420352 -0.06220615 -0.020591801 -0.023094688 -0.010997522 0.77538514 -0.020287564
-0.020600358 0.18313523 -0.037375398 -0.044989757 -0.22079585 -0.0130961025 -0.02152129 0.29512888
00000000: 86f6 bc3e 6f80 873e 4d87 93bc 2f3f c3bc
00000010: 438e 92bc 93e8 e83d 2108 dcbe ecac c23d
00000020: 6955 673e 0727 0abd 7590 93bc 9620 e4bc
00000030: c48d 93bc ac31 b1bc 967e 93bc 553e 1cbd
00000040: 4a45 cebd 3154 a73e 45eb 74be 29fc 03bd
00000050: 1692 93bc d009 23bd 4925 05bd 4c75 a3bc
00000060: 66e4 2ebd 4738 87be 1528 8a3c c9cd 383f
00000070: 76bc 56bd 225b b2bc f5fd 93bc 8894 9dbc
00000080: 2363 283e 72f1 febc 7016 6d3e 7450 f33e
00000090: d57a 93bc 208c 93bc 435f 86bd 7c8d 93bc
000000a0: 6dc4 1b3f a861 92bd 272c a4bd fe27 3c3e
000000b0: dc65 3d3e 70f9 c4bc fedf 493d 8a15 d7bc
000000c0: d094 93bc d2c2 0a3f e0cb 7ebd 23b0 a8bc
000000d0: 1231 bdbc f32e 34bc a47f 463f 1b32 a6bc
000000e0: 15c2 a8bc cd87 3b3e f216 19bd 2e47 38bd
000000f0: 4f18 62be 0991 56bc 6b4d b0bc 221b 973e

W3 f4 [1024, 10]
0.3388306 -0.32295457 -0.080980815 -0.028128602 0.026142552 0.12690826 0.15188524 -0.082524315
-0.048844237 -0.2239277 0.32781467 -0.20675828 0.30648056 0.009566643 0.18691266 0.11233438
-0.2532691 -0.25122672 -0.23861305 -0.22118247 0.21740068 -0.001772462 -0.16375923 0.16294658
0.2012393 -0.12096436 0.01653796 0.0021987054 -0.05824093 -0.14848967 0.09545074 -0.3556107
0.03151925 0.117867135 -0.102023736 0.13475405 0.0011853856 0.18749544 -0.12187697 -0.2647962
-0.24133879 -0.16728006 -0.062477626 0.15524806 -0.35021773 0.20517705 0.13978018 0.28818223
-0.22794864 -0.2577568 0.07023996 -0.23448591 0.068995744 0.10833952 0.23112285 -0.0027309645
0.14337876 -0.0024314523 -0.36031303 -0.43883014 0.1332049 -0.2549459 0.2324209 0.037735015
0.37658188 -0.11635505 0.10983406 -0.24709453 -0.27886495 -0.24952663 0.29687127 0.20542696
-0.07849333 -0.12096083 0.10182149 0.0657903 0.3306164 -0.40078306 0.12909164 -0.41953686
-0.17461878 -0.19363558 -0.044334017 0.1099933 0.07607511 0.108185165 0.14237691 0.18678537
-0.45318323 -0.25224307 0.05529777 -0.7133905 0.2327358 0.07870453 0.069671266 -0.02376269
0.33535132 -0.098688036 -0.2014509 -0.15718047 -0.123706535 -0.2353522 0.27671856 0.086060114
0.2676116 -0.60569185 0.26192212 -0.041660167 0.37866676 -0.25126755 0.017860701 -0.15074545
-0.082022294 0.046434473 -0.09367346 0.13082342 -0.103399 -0.06329269 0.55864376 -0.12586026
0.11754647 0.047593605 0.21132982 0.06566928 -0.20800997 0.12542695 0.104827434 0.23031336
-0.6729372 -0.32758018 0.28466472 -0.20889752 -0.06738662 -0.025666073 0.01039651 -0.26204103
-0.056791358 0.041786905 0.46916723 -0.24187265 -0.3214753 0.27606842 0.11536758 -0.23526786
-0.0003569737 -0.100991935 -0.37915814 0.15620905 0.665469 -0.003911252 0.015455117 0.3797078
0.0051771766 -0.0576509 -0.1902435 -0.07049759 -0.2749321 0.014274173 0.4416432 -0.1250439
0.39295352 -0.38531974 0.18277185 -0.19167046 0.3313513 0.04442772 -0.38022834 -0.23530775
0.26651314 -0.25300947 -0.12885788 -0.037377596 0.10562981 -0.08110478 0.20540673 -0.13163511
0.08825963 0.12294263 -0.15208797 0.00881432 0.2998381 0.24643059 -0.29122406 0.06836685
-0.06730034 -0.07909901 -0.09738369 0.059410706 -0.20514631 -0.04023704 -0.3115196 0.0898412
-0.029877841 0.08758438 -0.10641144 0.02935676 -0.11381789 -0.082239635 0.54415315 -0.1273627
0.21485193 -0.22415769 0.22421463 -0.20945652 0.30274588 0.087922946 -0.8072228 0.43593562
-0.079848275 -0.34794635 -0.14667098 0.21542563 -0.05958968 -0.002854035 0.0051139966 0.20769691
-0.39968342 0.14462048 0.09406138 -0.09115464 0.120976776 0.080475844 -0.08696966 0.10303298
-0.104637116 0.112039015 -0.01021268 -0.24161875 0.28134388 -0.20800784 0.30417207 -0.20722727
0.14347526 0.040110014 0.3567309 -0.20344938 -0.022856068 -0.035848428 -0.16304098 -0.08380857
0.23627801 -0.039882906 0.26881036 -0.1781117 -0.061544716 -0.21796952 -0.16211244 0.37032205
-0.3160792 0.102431744 -0.08437635 0.045093738 -0.0068701706 0.13189323 -0.20214061 -0.19804627
00000000: 347b ad3e 4d5a a5be 45d9 a5bd f46d e6bc
00000010: e828 d63c 3df4 013e ce87 1b3e 8202 a9bd
00000020: e510 48bd 4e4d 65be 53d7 a73e 71b8 53be
00000030: 05eb 9c3e 69bd 1c3c 0866 3f3e 910f e63d
00000040: 7dac 81be caa0 80be fb56 74be a87d 62be
00000050: 499e 5e3e f551 e8ba 80b0 27be 78db 263e
00000060: ad11 4e3e 2abc f7bd 9e7a 873c 2818 103b
00000070: 0b8e 6ebd ad0d 18be ad7b c33d 9b12 b6be
00000080: 541a 013d 5364 f13d d2f1 d0bd f7fc 093e
00000090: f15e 9b3a cefe 3f3e a29a f9bd 5e93 87be
000000a0: 8421 77be 774b 2bbe 8ae8 7fbd 59f9 1e3e
000000b0: bd4f b3be ef19 523e 8922 0f3e 9f8c 933e
000000c0: 5e6b 69be b3f8 83be f8d9 8f3d 131d 70be
000000d0: a44d 8d3d 1ce1 dd3d 78ab 6c3e fbf9 32bb
000000e0: e2d1 123e 0059 1fbb f37a b8be 58ae e0be
000000f0: de66 083e 4588 82be bfff 6d3e 0890 1a3d
00000100: 57cf c03e 8e4b eebd aef0 e03d 5906 7dbe
00000110: 63c7 8ebe e983 7fbe 83ff 973e 725b 523e
00000120: 1cc1 a0bd 50ba f7bd c987 d03d 11bd 863d
00000130: 8e46 a93e 7033 cdbe 9930 043e 89cd d6be
00000140: 44cf 32be 6848 46be 9697 35bd 2b44 e13d
00000150: 44cd 9b3d 2f90 dd3d 41cb 113e aa44 3f3e
00000160: a207 e8be 0126 81be ea7f 623d c3a0 36bf
00000170: 4b52 6e3e d72f a13d cfaf 8e3d f9a9 c2bc
00000180: 2bb3 ab3e f41c cabd 2549 4ebe ebf3 20be
00000190: da59 fdbd 2b00 71be 0eae 8d3e 4940 b03d
000001a0: 6304 893e 9f0e 1bbf a81a 863e daa3 2abd
000001b0: 9ce0 c13e 24a6 80be 9b50 923c 045d 1abe
000001c0: 4efb a7bd 1332 3e3d dfd7 bfbd 93f6 053e
000001d0: dbc2 d3bd 999f 81bd 4703 0f3f 83e1 00be
000001e0: 34bc f03d 83f1 423d d866 583e 9e7d 863d
000001f0: 9100 55be ec6f 003e c4af d63d 44d7 6b3e
00000200: 9d45 2cbf 97b8 a7be 93bf 913e 3be9 55be
00000210: ff01 8abd a841 d2bc 2056 2a3c 3e2a 86be
00000220: 0e9e 68bd bf28 2b3d b036 f03e 77ad 77be
00000230: 6998 a4be d758 8d3e d645 ec3d 0fea 70be
00000240: 3328 bbb9 dcd4 cebd 0421 c2be 44f5 1f3e
00000250: 2d5c 2a3f f629 80bb 7637 7d3c 1069 c23e
00000260: 4ea5 a93b 5a23 6cbd 31cf 42be 0a61 90bd
00000270: e6c3 8cbe 39de 693c 0f1f e23e 820b 00be
00000280: 3431 c93e a148 c5be 8b28 3b3e 4345 44be
00000290: e1a6 a93e d7f9 353d 4aad c2be 84f4 70be
000002a0: 6974 883e 758a 81be 52f3 03be 4019 19bd
000002b0: 7154 d83d 431a a6bd 2456 523e 5bcb 06be
000002c0: 77c1 b43d 58c9 fb3d f3bc 1bbe f069 103c
000002d0: 6184 993e 4d58 7c3e 521b 95be eb03 8c3d
000002e0: c3d4 89bd a9fe a1bd 1a71 c7bd a458 733d
000002f0: e011 52be 98cf 24bd 7f7f 9fbe aafe b73d
00000300: 60c2 f4bc 705f b33d 3eee d9bd 977d f03c
00000310: 5b19 e9bd 416d a8bd 9f4d 0b3f 5e6b 02be
00000320: 2502 5c3e 9889 65be 8598 653e c57b 56be
00000330: 8201 9b3e f210 b43d 27a6 4ebf f432 df3e
00000340: 7e87 a3bd 0626 b2be eb30 16be 8998 5c3e
00000350: 4f14 74bd c30a 3bbb 5093 a73b 80ae 543e
00000360: 4ea3 ccbe 6417 143e 41a3 c03d 49af babd
00000370: acc2 f73d 85d0 a43d 261d b2bd f402 d33d
00000380: fc4b d6bd b674 e53d 1653 27bc e86a 77be
00000390: 4e0c 903e 0200 55be 71bc 9b3e 6333 54be
000003a0: 2eeb 123e 664a 243d 6fa5 b63e 0955 50be
000003b0: a63c bbbc cdd5 12bd 37f4 26be d4a3 abbd
000003c0: ddf2 713e 425c 23bd 83a1 893e ea62 36be
000003d0: 5016 7cbd 6733 5fbe ce00 26be da9a bd3e
000003e0: 22d5 a1be bcc7 d13d 82cd acbd 36b4 383d
000003f0: 2b1f e1bb 050f 073e f3fd 4ebe a4cc 4abe

b3 f4 [10]
-0.01693482 -0.6737835 -0.16988093 0.17266853 0.5583351 -0.0007655252 0.16265157 -0.38827503
0.33559242 -0.14474256
00000000: e4ba 8abc 137d 2cbf 44f5 2dbe 05d0 303e
00000010: 0def 0e3f 87ad 48ba 228e 263e fccb c6be
00000020: c5d2 ab3e 6537 14be
