DeepLearning for ComputerVison/project/A3/overfit_deepconvnet.pth (torch, 112160 bytes, 10 tensors)

W0 f4 [8, 3, 3, 3]
-0.14981507 -0.11485302 -0.32746634 -0.056852497 -0.08596323 -0.101142414 -0.10111016 -0.075090334
-0.10081909 -0.094993435 -0.23861757 0.17337728 -0.040209148 -0.08913747 0.10700719 0.093674175
-0.032173116 0.16928348 0.083497696 0.037485056 -0.08969578 -0.20763531 -0.13724318 -0.13493975
0.0061705937 0.0020754086 0.25194347 0.17164958 0.041875042 -0.10449161 0.23538977 0.017624758
-0.08849652 0.062388223 -0.021650735 -0.08943665 0.033082757 0.04313446 0.03178219 0.25469828
0.04314491 0.01543061 0.26209453 0.13343546 -0.035974577 0.19901471 -0.10947157 -0.09276501
0.07331166 0.07363078 0.014819593 0.07879011 0.1433668 -0.1329702 -0.037095245 0.03481775
-0.04682176 -0.08806591 -0.09340748 0.08795825 0.015389017 0.015077902 0.07179243 -0.21337312
-0.09135554 -0.17143664 -0.009528369 -0.2120267 -0.17152195 -0.0687223 0.010908288 -0.08142119
-0.16514423 -0.12405108 0.01424846 -0.25590035 -0.04699068 -0.06124703 -0.038512055 -0.10654481
-0.06690618 0.09661301 -0.34753975 -0.030236306 0.05264133 0.16660817 -0.051178303 0.056142878
0.031749852 -0.08494032 0.13021104 0.12274939 -0.06986886 0.1300349 0.1337285 -0.16726875
0.058120344 -0.13515994 -0.16305111 -0.021832671 -0.04112283 -0.07930395 0.12722334 0.100967124
-0.22601642 0.112317465 0.09001679 -0.15224057 0.023615623 -0.043519765 -0.1992028 -0.014918754
0.22461616 0.0928173 0.08985389 -0.14448023 -0.026365358 -0.19455723 0.12857775 -0.018492639
0.2204334 -0.06660864 0.21348807 -0.03171033 -0.096075475 -0.0161823 -0.10320339 -0.07034553
-0.15166488 -0.08178818 -0.07188979 0.22757208 -0.16978008 0.09809991 -0.23220764 -0.14930215
0.004273168 -0.0711607 -0.06582868 -0.031645007 0.05640636 -0.08384543 0.019590925 -0.096877225
-0.11492659 0.027465574 0.009084449 0.10125113 -0.034464233 0.009471437 -0.090000376 0.009143148
0.020792007 -0.19227752 -0.0022478178 -0.00078473386 0.07429327 0.16312875 0.12112147 -0.13378322
0.06036483 -0.01979449 -0.18474536 0.04200436 0.071858875 -0.13425998 -0.20431966 0.15494648
-0.13595074 0.008814697 0.027423918 -0.06350834 -0.2784016 0.08785806 -0.2055303 0.10753796
0.06265748 -0.11376712 0.035838727 0.07320067 -0.21831423 0.13844131 -0.07859101 -0.058319606
-0.115191884 0.11350728 -0.15098356 -0.022601463 0.07065782 -0.052416228 -0.14579847 -0.11893922
-0.09684234 -0.22034626 -0.1768335 -0.120427445 -0.052340396 -0.061548285 -0.21324818 -0.13273437
-0.13292634 -0.23392121 -0.20304318 -0.12126129 -0.14688759 -0.31011206 -0.13468058 -0.06043915
-0.03868609 0.053613808 -0.07289359 -0.04017281 -0.20565155 0.100282915 -0.027374417 -0.20958877
00000000: 1f69 19be 0f38 ebbd aba9 a7be 2ade 68bd
00000010: 7d0d b0bd c123 cfbd d812 cfbd f6c8 99bd
00000020: 3d7a cebd eb8b c2bd 2a58 74be d089 313e
00000030: 59b2 24bd b58d b6bd 9626 db3d 3fd8 bf3d
00000040: f5c7 03bd a658 2d3e d700 ab3d ee89 193d
00000050: 6cb2 b7bd 5a9e 54be 7a89 0cbe a52d 0abe
00000060: b132 ca3b 9403 083b bcfe 803e e8c4 2f3e
00000070: 2a85 2b3d b2ff d5bd 040a 713e cc61 903c
00000080: aa3d b5bd cb8a 7f3d e25c b1bc 902a b7bd
00000090: c981 073d c2ad 303d 0b2e 023d d067 823e
000000a0: b8b8 303d abd0 7c3c 4131 863e 4ea3 083e
000000b0: 145a 13bd 83ca 4b3e a132 e0bd 95fb bdbd
000000c0: 6c24 963d bccb 963d e1cd 723c b65c a13d
000000d0: bfce 123e 5729 08be 2ff1 17bd 0f9d 0e3d
000000e0: 2cc8 3fbd e65b b4bd 6c4c bfbd 7423 b43d
000000f0: 3722 7c3c 4e09 773c e907 933d 7c7e 5abe
00000100: 9d18 bbbd 168d 2fbe e01c 1cbc 871d 59be
00000110: 73a3 2fbe 47be 8cbd adb8 323c 27c0 a6bd
00000120: 921b 29be 7e0e febd 5f72 693c 5f05 83be
00000130: 4d79 40bd 2ade 7abd d1be 1dbd 2a34 dabd
00000140: 1b06 89bd 0bdd c53d bbf0 b1be 21b2 f7bc
00000150: 6f9e 573d 559b 2a3e 57a0 51bd 13f6 653d
00000160: 220c 023d 31f5 adbd 0b56 053e 0864 fb3d
00000170: 6817 8fbd de27 053e 20f0 083e 8048 2bbe
00000180: 990f 6e3d 5e67 0abe dff6 26be 6eda b2bc
00000190: 6a70 28bd 1c6a a2bd d646 023e dac7 ce3d
000001a0: d970 67be b306 e63d b95a b83d f4e4 1bbe
000001b0: 8d75 c13c c841 32bd d2fb 4bbe ca6d 74bc
000001c0: c701 663e ff16 be3d 5105 b83d a0f2 13be
000001d0: 2afc d7bc 033a 47be e3a9 033e e07d 97bc
000001e0: 4bb9 613e 1c6a 88bd 9e9c 5a3e b1e2 01bd
000001f0: 38c3 c4bd be90 84bc 4d5c d3bd 5111 90bd
00000200: 0a4e 1bbe 9080 a7bd f43a 93bd a808 693e
00000210: d4da 2dbe 9be8 c83d d7c7 6dbe aae2 18be
00000220: ee05 8c3b b3bc 91bd 30d1 86bd 329e 01bd
00000230: 5b0a 673d 27b7 abbd 267d a03c 9167 c6bd
00000240: a25e ebbd 7cff e03c f1d6 143c c15c cf3d
00000250: 5e2a 0dbd 162e 1b3c 1e52 b8bd 24cd 153c
00000260: 0054 aa3c 66e4 44be 2050 13bb 99b6 4dba
00000270: 1227 983d 390b 273e 890e f83d 78fe 08be
00000280: 1d41 773d 0e28 a2bc e32d 3dbe c40c 2c3d
00000290: bf2a 933d 737b 09be 2c39 51be 4aaa 1e3e
000002a0: ac36 0bbe 856b 103c 20a8 e03c a910 82bd
000002b0: a88a 8ebe edee b33d 8976 52be dd3c dc3d
000002c0: 9152 803d bcfe e8bd a1cb 123d 3cea 953d
000002d0: c48d 5fbe 8fc3 0d3e 53f4 a0bd 8ae0 6ebd
000002e0: b9e9 ebbd 8176 e83d 6f9b 1abe b426 b9bc
000002f0: 0cb5 903d 66b2 56bd 324c 15be 6896 f3bd
00000300: 4755 c6bd 73a2 61be d713 35be aaa2 f6bd
00000310: e262 56bd 0e1a 7cbd bb5d 5abe 85eb 07be
00000320: d81d 08be 0b89 6fbe 8dea 4fbe d757 f8bd
00000330: b369 16be 02c7 9ebe b5e9 09be 0b8f 77bd
00000340: 4e75 1ebd 279a 5b3d 3c49 95bd 3f8c 24bd
00000350: 5296 52be 2161 cd3d 5040 e0bc 709e 56be

b0 f4 [8]
0.02859357 0.0778074 0.0297793 0.03414868 0.025954654 0.027523285 0.053258006 0.04269724
00000000: 103d ea3c 7c59 9f3d b8f3 f33c 7cdf 0b3d
00000010: db9e d43c 8378 e13c 1125 5a3d 4de3 2e3d

W1 f4 [16, 8, 3, 3]
0.014511815 -0.042132776 0.10953828 -0.06524739 0.19235207 0.15432765 -0.0034644147 -0.077871285
0.099748805 0.15245537 -0.08946769 -0.04967275 0.11744698 0.056536164 -0.105117045 0.014342165
-0.00084724324 0.20273742 -0.08216441 0.19904543 0.068361 -0.035741612 0.08964598 0.051904105
-0.047952894 -0.041113265 0.13268487 0.020770207 0.13085806 0.074740335 0.26851603 0.069778666
-0.02606538 -0.006197582 0.3672857 0.032848988 -0.011680647 0.059211127 0.2730707 0.22414233
0.005540634 0.048275653 0.03722861 0.03503867 0.31022617 -0.038854524 -0.008407232 0.07218484
-0.15802117 -0.09211819 0.23816606 0.031211922 -0.16715585 0.3139623 0.07058228 -0.14827888
-0.014573435 -0.051593497 0.1633452 0.06763987 -0.102572985 0.10271992 0.11545402 0.055539027
0.25884652 -0.082074285 -0.011308928 0.0444217 0.07367128 -0.10471951 -0.14649318 0.06687901
-0.027024709 0.081182905 -0.14388669 -0.08124202 0.13249479 -0.17839864 0.02760602 0.019830381
-0.06920209 0.055107366 -0.0004705136 0.03868061 0.12791303 0.037278518 -0.08255891 0.08894306
0.018052608 0.025457747 -0.03802255 -0.045950796 0.056474306 0.00990013 0.21829471 -0.049434725
-0.07385841 0.09309662 -0.020069499 0.027277907 0.04508935 -0.07908321 0.08639343 -0.055780407
-0.07280374 0.088373795 0.14186735 -0.058529742 -0.09703307 -0.11563308 -0.18656269 -0.056523293
-0.08358063 -0.03424546 0.13040222 -0.13888016 0.056480113 -0.16861346 0.0025069371 0.019535797
0.047543436 -0.062186632 0.04498695 0.1601537 0.015501391 0.026178641 0.101541884 -0.025549745
0.081504084 0.10888386 -0.060298737 0.18970005 -0.14411189 0.13314208 0.075761646 -0.023212064
0.16458994 0.11562083 -0.03747968 0.21108319 -0.056888342 0.2004883 0.31049135 0.14815558
0.11639775 -0.09060113 -0.053543076 -0.0042949636 -0.059456743 0.122999124 0.029851047 -0.16393737
-0.072670065 0.02992956 -0.043862943 0.04707548 0.078309424 0.034310307 0.036095705 -0.06627501
-0.07563795 0.06897835 -0.18274708 0.24595489 0.0029692731 0.017729808 0.09892828 0.053609584
0.054377474 -0.058900706 -0.16989698 0.22069561 0.036523186 0.1717645 0.16176617 -0.09808852
0.34509256 -0.03257717 -0.036955766 0.1344314 0.046789642 0.061533872 0.18620706 -0.07120728
0.033013415 0.06329674 -0.033677258 0.027311431 0.011400516 -0.0017590468 -0.022138322 0.09634266
0.101206824 -0.08805932 0.08741436 -0.051144246 -0.044702284 0.04934836 0.13461201 0.13153447
0.10391543 0.22439668 -0.0077627716 0.13301209 0.082523584 0.04714481 -0.13269 -0.06417573
0.04337099 0.15169448 -0.055877447 0.062289998 -0.032287892 -0.18533213 -0.23330818 -0.057120845
0.09331015 0.028553281 -0.001782801 -0.014369244 0.016669879 -0.023546245 -0.03237703 0.050541736
0.14570041 0.030327031 0.15814385 0.057392173 -0.051069155 0.10093373 -0.21717736 -0.21485937
-0.12540817 -0.11257796 -0.06163435 -0.14046334 -0.20144014 0.1888819 0.14833498 0.0571553
0.14152229 0.21852387 0.03525852 0.17018317 -0.012884108 0.08471551 0.12248498 0.15801737
-0.10782691 -0.06035473 -0.0063456083 -0.13113423 -0.101401426 -0.01951049 -0.21731028 0.041118674
00000000: f7c2 6d3c 6b93 2cbd 9b55 e03d 6ca0 85bd
00000010: f1f7 443e 1108 1e3e 3c0b 63bb fb7a 9fbd
00000020: 1a49 cc3d 431d 1c3e d63a b7bd a775 4bbd
00000030: 0b88 f03d 7792 673d 9b47 d7bd 66fb 6a3c
00000040: 8819 5eba 669a 4f3e d045 a8bd 91d2 4b3e
00000050: da00 8c3d cc65 12bd 5098 b73d 6699 543d
00000060: 416a 44bd 6266 28bd 8bde 073e 4826 aa3c
00000070: a8ff 053e 7611 993d ef7a 893e 1ee8 8e3d
00000080: 1087 d5bc 1615 cbbb df0c bc3e a98c 063d
00000090: 2f60 3fbc 5e87 723d eccf 8b3e 9185 653e
000000a0: 358e b53b b1bc 453d 077d 183d b584 0f3d
000000b0: f7d5 9e3e ec25 1fbd 7dbe 09bc a5d5 933d
000000c0: 4dd0 21be 76a8 bcbd cee1 733e 25b0 ff3c
000000d0: e72a 2bbe abbf a03e 718d 903d 6bd6 17be
000000e0: 6bc5 6ebc b453 53bd f743 273e c686 8a3d
000000f0: c911 d2bd d25e d23d 2873 ec3d e47c 633d
00000100: 8887 843e 9016 a8bd 1549 39bc 87f3 353d
00000110: f8e0 963d 2f77 d6bd 4f02 16be ddf7 883d
00000120: ec62 ddbc 3943 a63d 0857 13be 3762 a6bd
00000130: b7ac 073e 22ae 36be 0526 e23c 5373 a23c
00000140: d3b9 8dbd 43b8 613d 44af f6b9 8f6f 1e3d
00000150: a2fb 023e 5cb1 183d a514 a9bd c727 b63d
00000160: 10e3 933c c48c d03c 89bd 1bbd e736 3cbd
00000170: 9a51 673d 2834 223c a688 5f3e 117c 4abd
00000180: 1443 97bd 71a9 be3d ca68 a4bc eb75 df3c
00000190: 9caf 383d 61f6 a1bd 0aef b03d ff79 64bd
000001a0: 211a 95bd 52fd b43d ad45 113e e2bc 6fbd
000001b0: 46b9 c6bd 09d1 ecbd 4a0a 3fbe f884 67bd
000001c0: 522c abbd f844 0cbd 2988 053e 9a36 0ebe
000001d0: b157 673d 02a9 2cbe 6d4b 243b 8909 a03c
000001e0: e8bc 423d 69b7 7ebd 3c44 383d 55ff 233e
000001f0: 8cf9 7d3c 9774 d63c 31f5 cf3d b34d d1bc
00000200: 9deb a63d 80fe de3d cffb 76bd bb40 423e
00000210: 1192 13be 6656 083e ec28 9b3d 3a27 bebc
00000220: 448a 283e 9dca ec3d 4b84 19bd 3126 583e
00000230: c003 69bd ce4c 4d3e b9f8 9e3e 19b6 173e
00000240: f261 ee3d 168d b9bd fc4f 5bbd c4bc 8cbb
00000250: ea88 73bd f7e6 fb3d 2f8a f43c 33df 27be
00000260: 0bd4 94bd d62e f53c a1a9 33bd 38d2 403d
00000270: b160 a03d f788 0c3d 17d9 133d 31bb 87bd
00000280: 12e8 9abd 8544 8d3d 0d22 3bbe 99db 7b3e
00000290: 2398 423b 1a3e 913c e99a ca3d b995 5b3d
000002a0: eaba 5e3d de41 71bd 79f9 2dbe 08fe 613e
000002b0: 5699 153d 08e3 2f3e 08a6 253e a2e2 c8bd
000002c0: f9af b03e a36f 05bd ee5e 17bd 63a8 093e
000002d0: 7fa6 3f3d f10a 7c3d 10ad 3e3e 1fd5 91bd
000002e0: 1339 073d b9a1 813d 2af1 09bd 39bc df3c
000002f0: 3bc9 3a3c d18f e6ba 6d5b b5bc 4d4f c53d
00000300: 8645 cf3d 7258 b4bd 4d06 b33d a17c 51bd
00000310: be19 37bd 8221 4a3d bbd7 093e f9b0 063e
00000320: 9dd1 d43d 3ec8 653e d95e febb 5234 083e
00000330: 2002 a93d eb1a 413d e3df 07be 916e 83bd
00000340: c7a5 313d cc55 1b3e c0df 64bd cc23 7f3d
00000350: 4f40 04bd b5c7 3dbe 57e8 6ebe 8cf7 69bd
00000360: 6419 bf3d 92e8 e93c e0ac e9ba fa6c 6bbc
00000370: 458f 883c 0ee4 c0bc c79d 04bd da04 4f3d
00000380: 7d32 153e 6570 f83c 76f0 213e 0e14 6b3d
00000390: e42d 51bd 58b6 ce3d be63 5ebe 1804 5cbe
000003a0: 006b 00be 468f e6bd 4d74 7cbd 9fd5 0fbe
000003b0: 5346 4ebe 426a 413e 20e5 173e ad1b 6a3d
000003c0: 38eb 103e b9c4 5f3e 3d6b 103d 7f44 2e3e
000003d0: de17 53bc 537f ad3d 68d9 fa3d 4ecf 213e
000003e0: 5bd4 dcbd 8536 77bd d2ee cfbb 0d48 06be
000003f0: 8dab cfbd 77d4 9fbc 9686 5ebe 0e6c 283d

b1 f4 [16]
0.014578458 0.017464137 0.019789202 0.025399772 0.022882568 0.0039650495 0.04489426 -0.0008270826
-0.006259546 0.025732836 -0.009326338 0.025167324 0.0052664187 0.042404663 0.015401723 -0.011758942
00000000: 7cda 6e3c f310 8f3c f71c a23c 2f13 d03c
00000010: 3974 bb3c 3fed 813b 0be3 373d 93d0 58ba
00000020: e11c cdbb abcd d23c 7fcd 18bc b42b ce3c
00000030: ec91 ac3b 83b0 2d3d 8257 7c3c 94a8 40bc

W2 f4 [32, 16, 3, 3]
0.24093238 -0.09698677 -0.06359984 0.031404797 0.010944222 -0.042076755 0.14432122 0.102146834
-0.076037094 -0.0028973368 0.10778782 -0.017271396 -0.024063548 0.027777938 0.22765118 -0.1456398
-0.0072850217 0.038965166 -0.14660434 0.031767916 0.07795868 -0.023037245 -0.14688887 0.09257602
0.19592215 -0.06560042 0.097324796 -0.07306806 0.09203417 -0.073216 -0.09705872 0.2449548
0.19686037 0.021611683 0.05040727 0.2419525 0.038033545 -0.026735688 -0.03689261 -0.0024511912
0.028758727 0.18733308 0.08520943 0.07242361 0.27936667 -0.017379565 0.08589904 -0.014016608
0.025411986 0.1272965 0.13495788 0.030216401 -0.1387761 0.15252745 0.040226173 0.08818281
0.16370879 -0.07018299 0.0889235 -0.026030995 0.13434127 0.18169703 0.012993503 0.09057038
-0.12493149 -0.095228754 -0.39352006 0.108928375 0.029206386 -0.083844334 0.07145955 -0.04471212
-0.061065014 0.07003927 -0.23581037 -0.010170116 0.10807536 0.09710026 -0.102664515 -0.015936159
0.23619698 -0.087603584 0.04909308 0.1874689 -0.1315974 0.005020561 0.104098886 -0.2412367
0.03300074 -0.24743989 0.19065922 -0.15687397 -0.05982068 -0.09338586 -0.03702398 -0.09503225
0.068571284 0.1978804 -0.15774052 -0.19509551 0.016336065 0.05654549 0.076119475 0.05995637
0.1145611 -0.11009002 0.0230307 -0.18240923 0.042085342 -0.01892107 -0.0030284256 0.03304157
-0.004790422 0.10235041 0.034299597 0.23217155 0.09292883 -0.043558616 0.0098186545 -0.038594183
-0.08307868 0.002145908 0.23980094 0.14299616 0.23334098 0.042755965 0.1183624 -0.033114497
0.09605293 0.087443955 0.064608015 0.17519794 0.25915274 -0.020306917 0.08416375 -0.22689393
-0.1349783 0.12779373 0.10875832 -0.08892699 -0.1391675 0.07687476 0.15433545 0.11883067
0.03585134 0.1307219 -0.29404432 -0.015632771 0.17398912 0.09228467 0.014075762 0.20975187
-0.054283205 -0.04909946 0.029299343 -0.049431942 0.18188244 -0.0098192915 0.21237928 -0.14395536
-0.010698707 -0.056749657 -0.021887459 0.14766334 -0.07659303 0.2743982 0.07764077 0.17722659
0.009808965 0.17203884 0.16175622 0.18230371 0.027594954 -0.012618828 -0.122586235 -0.11877443
-0.029608421 0.15843788 -0.1389098 -0.1312479 0.010391267 -0.087823115 -0.1566326 0.074951604
-0.122070014 -0.14251627 -0.06693385 -0.0019881586 -0.0567429 0.01996528 -0.07369574 -0.022314977
-0.26641837 0.10989588 0.040855505 -0.02782385 0.077121235 0.22907093 0.013655652 -0.073741995
-0.0423212 0.16773374 -0.053459227 -0.14233366 0.08205363 -0.04027618 0.04007121 0.08463498
0.015333248 0.06986674 -0.07136796 0.0631366 -0.0020738707 -0.07332206 -0.051049262 0.126407
0.04264862 -0.0865354 0.11118244 0.028227786 -0.09273303 0.10138225 -0.009139802 0.0026894482
0.10158673 -0.11557685 0.019139763 -0.0014514863 0.29249564 0.11199969 0.11801257 0.05483785
0.057962757 -0.07852504 0.06896049 0.011589573 0.026749395 -0.049326748 -0.022349197 0.15317523
0.092594355 0.22534366 -0.08049678 -0.0047142226 1.7833216e-05 -0.09656871 0.014431427 0.12791286
0.068168096 -0.02418873 0.010015236 -0.114136934 -0.012260316 0.03304177 0.01749988 0.109409064
00000000: fab6 763e 00a1 c6bd a240 82bd 51a2 003d
00000010: 654f 333c ad58 2cbd f1c8 133e 5c32 d13d
00000020: 56b9 9bbd 3fe1 3dbb dcbf dc3d be7c 8dbc
00000030: eb20 c5bc 8f8e e33c 641d 693e 9a22 15be
00000040: 31b7 eebb f099 1f3d 731f 16be 131f 023d
00000050: cda8 9f3d 9bb8 bcbc 096a 16be 7f98 bd3d
00000060: d19f 483e 8359 86bd 3952 c73d b5a4 95bd
00000070: 697c bc3d 45f2 95bd b9c6 c6bd 6ed5 7a3e
00000080: c495 493e fc0a b13c db77 4e3d 65c2 773e
00000090: 10c9 1b3d cd04 dbbc b51c 17bd 2aa4 20bb
000000a0: 6c97 eb3c 3ed4 3f3e 4882 ae3d d452 943d
000000b0: 2609 8f3e 975f 8ebc d6eb af3d eaa5 65bc
000000c0: cc2c d03c 045a 023e 6632 0a3e 6388 f73c
000000d0: 521b 0ebe 2830 1c3e 33c4 243d 3099 b43d
000000e0: 47a3 273e 19bc 8fbd 861d b63d f43e d5bc
000000f0: c290 093e c90e 3a3e b4e2 543c f77c b93d
00000100: 15dc ffbd 4b07 c3bd 767b c9be d715 df3d
00000110: 3b42 ef3c 94b6 abbd 6259 923d 0e24 37bd
00000120: 4f1f 7abd c070 8f3d 4678 71be 8fa0 26bc
00000130: 9d56 dd3d 80dc c63d c641 d2bd 8c8c 82bc
00000140: 9fdd 713e 8269 b3bd d315 493d d9f7 3f3e
00000150: 78c1 06be 8583 a43b cc31 d53d c106 77be
00000160: c92b 073d e260 7dbe 2c3c 433e 92a3 20be
00000170: 8806 75bd 1641 bfbd 75a6 17bd 45a0 c2bd
00000180: 1a6f 8c3d 29a1 4a3e bb86 21be 1ec7 47be
00000190: 36d3 853c 3e9c 673d 87e4 9b3d d094 753d
000001a0: 039f ea3d e076 e1bd e1aa bc3c 7cc9 3abe
000001b0: ae61 2c3d 5c00 9bbc 8d78 46bb 9956 073d
000001c0: f9f8 9cbb 179d d13d bc7d 0c3d 61be 6d3e
000001d0: 7851 be3d 856a 32bd 6cde 203c ef14 1ebd
000001e0: 2825 aabd 5da2 0c3b 618e 753e 966d 123e
000001f0: f0f0 6e3e e120 2f3d fc67 f23d 11a3 07bd
00000200: 66b7 c43d d115 b33d 3551 843d 1767 333e
00000210: abaf 843e b15a a6bc 0b5e ac3d e256 68be
00000220: c037 0abe 5cdc 023e afbc de3d 5b1f b6bd
00000230: ed81 0ebe 8470 9d3d 1d0a 1e3e 7f5d f33d
00000240: dbd8 123d f6db 053e fa8c 96be 4c10 80bc
00000250: 342a 323e bfff bc3d 069e 663c 32c9 563e
00000260: 1158 5ebd 841c 49bd 2d05 f03c 2679 4abd
00000270: 643f 3a3e 18e1 20bc f479 593e 0969 13be
00000280: a149 2fbc 5472 68bd 544d b3bc 0f35 173e
00000290: cedc 9cbd ec7d 8c3e 2002 9f3d e37a 353e
000002a0: c8b5 203c f32a 303e 6ca3 253e d3ad 3a3e
000002b0: d00e e23c 33bf 4ebc 7e0e fbbd 0240 f3bd
000002c0: 5c8d f2bc 8a3d 223e 5f3e 0ebe d965 06be
000002d0: 2240 2a3c 9bdc b3bd 4c64 20be 3a80 993d
000002e0: d8ff f9bd c9ef 11be 9d14 89bd c44b 02bb
000002f0: 3e6b 68bd 3a8e a33c cbed 96bd e6cd b6bc
00000300: fd67 88be 1711 e13d 1a58 273d d8ee e3bc
00000310: bdf1 9d3d 9291 6a3e f5bb 5f3c 0b06 97bd
00000320: ff58 2dbd 65c2 2b3e 10f8 5abd eabf 11be
00000330: bc0b a83d a3f8 24bd b621 243d 1b55 ad3d
00000340: 4e38 7b3c 4b16 8f3d 5d29 92bd c34d 813d
00000350: c7e9 07bb e029 96bd 0819 51bd d670 013e
00000360: 52b0 2e3d 7939 b1bd 9eb3 e33d f53d e73c
00000370: d1ea bdbd 7fa1 cf3d 1cbf 15bc 7441 303b
00000380: b40c d03d 8eb3 ecbd feca 9c3c cc3f beba
00000390: fdc1 953e 1860 e53d 93b0 f13d a79d 603d
000003a0: 5b6a 6d3d bcd1 a0bd 283b 8d3d 31e2 3d3c
000003b0: 8c21 db3c d80a 4abd aa15 b7bc f8d9 1c3e
000003c0: 1ca2 bd3d 7dc0 663e 7fdb a4bd c479 9abb
000003d0: 8a98 9537 d1c5 c5bd cb71 6c3c 97fb 023e
000003e0: b79b 8b3d 7227 c6bc f216 243c a0c0 e9bd
000003f0: 7edf 48bc cf56 073d e95b 8f3c dc11 e03d

b2 f4 [32]
-0.0093742665 -0.019439459 0.007418226 0.00201464 0.00083422154 0.016734842 -0.004557212 0.021862067
-0.0017593189 0.03625728 -0.0009701061 0.050044302 -0.004366803 0.019994026 0.0003052548 0.0067728236
-0.035252605 -0.0062772254 -0.017211126 0.0033939462 -0.00034465958 -0.02030763 0.019991234 0.015601169
0.036574364 -0.021217687 0.014456977 0.02625016 0.0074523427 -0.009206797 0.053181365 0.0069392514
00000000: 8696 19bc 803f 9fbc 9714 f33b 0d08 043b
00000010: a9af 5a3a 8217 893c aa54 95bb 1418 b33c
00000020: f298 e6ba 8382 143d b84e 7eba 41fb 4c3d
00000030: 6617 8fbb 83ca a33c 9b0a a039 90ee dd3b
00000040: 0965 10bd 2fb1 cdbb 59fe 8cbc f86c 5e3b
00000050: 6db3 b4b9 305c a6bc a8c4 a33c 0c9c 7f3c
00000060: 00cf 153d b7d0 adbc f5dc 6c3c 930a d73c
00000070: c832 f43b 1bd8 16bc b4d4 593d a962 e33b

W3 f4 [64, 32, 3, 3]
0.053444725 -0.13032168 -0.08766314 0.044132534 -0.073033996 0.12048256 -0.043574456 0.068062626
0.023769056 -0.026666513 -0.13097344 0.04693499 -0.040334158 0.09834282 -0.058570325 0.073035
0.13356572 0.15259019 -0.0078503 -0.09004544 0.091546506 0.053320814 0.1253098 -0.004286618
-0.19776204 0.04292382 -0.17885403 0.053797618 0.14869548 0.08959126 -0.118355304 0.10829764
-0.017193595 0.04908313 0.24669455 -0.10848081 -0.031308435 -0.252916 -0.0641598 0.014159623
-0.00028708333 0.11487169 -0.059928805 -0.11461962 -0.107394 0.01967635 -0.15724623 -0.12755771
0.11377321 0.13732357 0.108131066 0.109527014 0.22386295 -0.35253012 0.020431835 -0.021686187
-0.079746015 -0.14934185 -0.032477997 0.3473659 0.045557205 0.11906098 -0.05776386 0.13311772
0.21490653 0.07724061 -0.03388282 -0.16325748 0.023929704 0.030746322 -0.09236328 -0.005495934
0.03429086 -0.07200923 -0.031296667 0.036685098 0.098200254 0.15753415 0.05345343 0.24267648
0.13823327 0.18486242 0.15117568 0.07342833 0.057610966 0.105179034 0.032780733 0.09190034
0.061070684 0.07029671 -0.07270899 0.037419435 -0.013826304 0.08304136 0.1378012 0.15733379
-0.13747633 0.16772361 -0.0014126728 0.006256731 0.08890963 -0.13195044 0.2065601 0.15140037
-0.07933978 0.22093157 0.02303366 0.017184097 0.055675734 0.18079652 0.06262613 0.13677593
0.16468102 0.0454549 0.003288873 0.07288631 0.20446695 0.2298251 0.09094147 0.14315763
-0.06050524 -0.085269965 0.056139756 0.103441894 0.0078413375 0.17484416 0.054143947 -0.08073055
-0.049429502 0.07566812 0.10351276 -0.012426594 0.0092899995 0.015755963 -0.1198719 0.14420258
0.09518521 0.08439936 0.19028614 -0.03375043 -0.10946104 0.16735405 -0.035787873 0.20655707
0.24244379 -0.19737877 -0.06954843 -0.16674116 0.16998115 0.0011658242 -0.06987862 0.09828316
-0.21536192 0.291491 0.17453605 -0.085312255 0.22081046 -0.093019746 0.120999925 -0.05957931
-0.08332856 0.19156048 -0.08059864 0.056428965 -0.098643266 -0.020296527 -0.014648172 0.09460798
-0.05734787 0.044559013 0.038590044 -0.020195106 0.052449197 -0.009680992 0.08817871 -0.08928602
-0.023522649 -0.119218625 0.044399943 0.0046994775 -0.0262654 0.02743745 -0.048908524 0.06678171
-0.07915346 -0.18729083 0.027171202 0.033980682 0.22558166 -0.13802613 -0.13953564 -0.16253573
-0.04345113 -0.06909656 -0.038241163 0.058908064 0.039991476 0.011454082 0.11067501 -0.05325328
-0.039966512 -0.10672849 -0.09357092 -0.19252607 0.1509822 0.04212644 0.0936073 0.0036671325
0.18547444 -0.02650355 -0.24512947 -0.06544774 -0.06929388 0.09119721 0.10952516 0.05504803
-0.14941272 -0.09634603 -0.07737523 -0.028901562 0.18643057 -0.015917271 0.080431715 0.012493207
0.0079484405 -0.07997974 -0.06872106 -0.03768404 0.11286482 -0.15852022 0.011930905 0.03796244
0.010121598 -0.02542341 0.048022747 -0.08530046 0.13015641 -0.21173619 -0.021954058 -0.004936801
0.10592611 0.0215528 -2.3673463e-05 -0.010022944 -0.20328422 0.017632987 -0.00045063335 0.026916137
0.048901334 -0.19365837 -0.12279509 -0.16696644 -0.098865464 0.009051698 -0.18017161 0.005932438
00000000: dbe8 5a3d 0c73 05be bb88 b3bd 51c4 343d
00000010: d992 95bd 8fbf f63d 217b 32bd 6b64 8b3d
00000020: 53b7 c23c bb73 dabc e71d 06be e73e 403d
00000030: 6e35 25bd f667 c93d 70e7 6fbd 6093 953d
00000040: 74c5 083e 9a40 1c3e 8b9e 00bc be69 b8bd
00000050: bc7c bb3d ed66 5a3d 3651 003e c276 8cbb
00000060: 2282 4abe e3d0 2f3d 8325 37be e45a 5c3d
00000070: a143 183e 9f7b b73d 4464 f2bd 27cb dd3d
00000080: 95d9 8cbc 640b 493d 7f9d 7c3e 302b debd
00000090: 463d 00bd 357e 81be 3766 83bd c3fd 673c
000000a0: ac83 96b9 d941 eb3d e877 75bd b1bd eabd
000000b0: 63f1 dbbd 4c30 a13c 2805 21be 7d9e 02be
000000c0: ee01 e93d 8d9e 0c3e d273 dd3d b34f e03d
000000d0: 543c 653e d47e b4be aa60 a73c 3ba7 b1bc
000000e0: e151 a3bd 12ed 18be a607 05bd f1d9 b13e
000000f0: 319a 3a3d 3ed6 f33d cc99 6cbd 0350 083e
00000100: 7510 5c3e 5330 9e3d b6c8 0abd f82c 27be
00000110: 3a08 c43c b6df fb3c f628 bdbd 3c17 b4bb
00000120: 9374 0c3d 9379 93bd ef30 00bd 1d43 163d
00000130: 371d c93d a250 213e fcf1 5a3d 2f80 783e
00000140: 068d 0d3e 934c 3d3e cccd 1a3e 9861 963d
00000150: 7af9 6b3d 1b68 d73d 1745 063d 3f36 bc3d
00000160: 4125 7a3d b9f7 8f3d 73e8 94bd 1f45 193d
00000170: b987 62bc 9711 aa3d c21b 0d3e 1c1c 213e
00000180: 98c6 0cbe bdbf 2b3e 6f29 b9ba 4405 cd3b
00000190: 4116 b63d 041e 07be 7e84 533e b308 1b3e
000001a0: e57c a2bd e33b 623e 16b1 bc3c aac5 8c3c
000001b0: 3d0c 643d b922 393e 2142 803d fd0e 0c3e
000001c0: 24a2 283e eb2e 3a3d 228a 573b 6b45 953d
000001d0: c95f 513e 4557 6b3e 853f ba3d ea97 123e
000001e0: 58d4 77bd 05a2 aebd cdf2 653d 58d9 d33d
000001f0: f478 003c 590a 333e 0bc6 5d3d 0f56 a5bd
00000200: 9776 4abd e3f7 9a3d 7ffe d33d ea98 4bbc
00000210: 1535 183c a612 813c 667f f5bd d7a9 133e
00000220: 77f0 c23d 92d9 ac3d 5fda 423e e43d 0abd
00000230: 1c2d e0bd dc5e 2b3e 4e96 12bd b283 533e
00000240: 2f43 783e a91d 4abe 686f 8ebd 32be 2abe
00000250: 8a0f 2e3e 92ce 983a 861c 8fbd ae48 c93d
00000260: d687 5cbe 4f3e 953e 94b9 323e 31b8 aebd
00000270: 231c 623e 2381 bebd cfce f73d 6f09 74bd
00000280: 2aa8 aabd 6e28 443e e610 a5bd 0f22 673d
00000290: 7b05 cabd e744 a6bc e3fe 6fbc d4c1 c13d
000002a0: 9ae5 6abd 8383 363d 9810 1e3d 3570 a5bc
000002b0: f8d4 563d 069d 1ebc 0a97 b43d 97db b6bd
000002c0: 92b2 c0bc e528 f4bd b7dc 353d 13fe 993b
000002d0: 892a d7bc 81c4 e03c 4e54 48bd d9c4 883d
000002e0: 361b a2bd 2bc9 3fbe 2496 de3c 542f 0b3d
000002f0: e1fe 663e b956 0dbe 6ee2 0ebe c46f 26be
00000300: d0f9 31bd 7f82 8dbd c4a2 1cbd 9549 713d
00000310: 1ace 233d e7a9 3b3c 94a9 e23d 1d20 5abd
00000320: edb3 23bd 7794 dabd 1ca2 bfbd 8e25 45be
00000330: 149b 1a3e c68c 2c3d 2fb5 bf3d 4654 703b
00000340: 03ed 3d3e f91d d9bc 3803 7bbe 7709 86bd
00000350: f3e9 8dbd 9ac5 ba3d ba4e e03d 0b7a 613d
00000360: a6ff 18be 1151 c5bd e876 9ebd f8c2 ecbc
00000370: a8e7 3e3e f064 82bc 62b9 a43d 4fb0 4c3c
00000380: 2d3a 023c 6bcc a3bd a1bd 8cbd 945a 1abd
00000390: ac25 e73d 2053 22be d879 433c 817e 1b3d
000003a0: 0fd5 253c c144 d0bc 80b3 443d 02b2 aebd
000003b0: b947 053e 5fd1 58be ffd8 b3bc e3c4 a1bb
000003c0: caef d83d 7f8f b03c 6096 c6b7 4637 24bc
000003d0: bd29 50be 0e73 903c fc42 ecb9 3b7f dc3c
000003e0: c44c 483d 614e 46be fe7b fbbd 40f9 2abe
000003f0: fa79 cabd 934d 143c e87e 38be e664 c23b

b3 f4 [64]
0.00078326004 -0.0006006285 0.013630145 0.011140675 0.012160698 0.01673122 0.011246526 -0.0001624332
-0.0018725195 -0.017480224 -0.020115461 0.03104916 0.007722037 -0.015694328 0.009969939 0.010331734
0.0008910078 -0.012935135 0.012140563 -0.00805456 -0.004395327 0.0028555822 -0.01344714 -0.011611016
0.0023502673 -0.006209692 -0.003976861 0.017222034 -0.023580842 0.026680432 0.005818586 0.016241604
0.024063049 0.004624175 0.01105306 -0.0050246944 0.007536141 0.018267687 0.03872919 0.0053317677
0.024597907 0.0059960843 -0.008254709 0.025379721 0.0028505975 -0.0024514375 0.044614498 0.026308803
0.033233166 0.006205575 -0.01678723 -0.015899932 0.011538225 0.023728026 0.0107569145 0.013504835
0.010779631 0.012888913 0.010961723 -0.0006467967 0.0019059549 -0.0025720408 -0.012867114 0.0054434245
00000000: b153 4d3a 7f73 1dba f950 5f3c 6187 363c
00000010: aa3d 473c e90f 893c 5943 383c d552 2ab9
00000020: 546f f5ba b032 8fbc 2ec9 a4bc cf5a fe3c
00000030: 2409 fd3b 6491 80bc f458 233c 6f46 293c
00000040: 8592 693a e3ed 53bc 36e9 463c 46f7 03bc
00000050: ad06 90bb b824 3b3b 6551 5cbc 213c 3ebc
00000060: f106 1a3b ac7a cbbb 5450 82bb 3915 8d3c
00000070: 9c2c c1bc ec90 da3c d6a9 be3b 1d0d 853c
00000080: df1f c53c 6486 973b e517 353c 31a6 a4bb
00000090: bcf1 f63b 1ea6 953c 80a2 1e3d 1cb6 ae3b
000000a0: 8d81 c93c cd7a c43b c23e 07bc 22e9 cf3c
000000b0: 17d1 3a3b 4ca8 20bb b1bd 363d 8f85 d73c
000000c0: 801f 083d 2358 cb3b 5f85 89bc 9340 82bc
000000d0: d30a 3d3c 4761 c23c c53d 303c 6243 5d3c
000000e0: 0d9d 303c 052c 533c cc98 333c cb8d 29ba
000000f0: 3cd1 f93a af8f 28bb 96d0 52bc c15e b23b

W4 f4 [256, 10]
-0.030319883 0.04013741 0.06479258 -0.024926785 -0.0018015066 -0.12136778 0.030709717 0.08246257
-0.06648327 0.15471806 0.034947027 -0.0627126 -0.18050772 0.033957794 0.16303426 0.08008885
0.011269869 0.18263736 0.008161608 0.112405 0.2810498 -0.12359567 -0.15497191 -0.15319584
0.078193046 -0.008654915 -0.15772912 -0.01393323 -0.016528679 0.07111365 0.0021763837 -0.0002523721
0.12939768 -0.04315183 -0.09922204 -0.08864457 -0.06269757 -0.29675615 0.038242903 0.09055837
-0.053305484 0.026906865 0.13145639 -0.1317132 0.022438172 0.14511609 -0.08266882 0.14742844
0.0043329564 0.15013546 -0.030237654 0.05333704 -0.021475865 0.11444486 -0.07988333 -0.029818777
0.09095117 0.13911428 -0.12760052 -0.11851454 -0.03069596 0.12401402 0.23182474 0.0028593454
0.011400599 -0.043841094 -0.13094392 0.07984752 0.108288854 -0.039016385 0.027178194 -0.08244694
0.24070881 -0.0594803 0.037293185 0.066952534 0.021547927 0.092909425 -0.24934787 -0.02711145
-0.120431654 -0.018389197 0.0985704 0.05237669 -0.06234351 -0.026720291 0.04210622 0.14517836
0.007893059 -0.1707486 -0.20281062 -0.0031544124 -0.076352865 0.24247944 -0.03444746 -0.04933055
0.048380114 -0.19451469 0.030263392 -0.108224325 0.033185758 0.06762139 0.10568676 0.03359623
-0.140128 -0.057972375 0.01952706 0.06794511 -0.13833295 0.061036874 0.0054319785 -0.06818878
-0.010231809 -0.039886966 0.21707125 -0.2021325 0.12648828 -0.03947734 -0.097931765 -0.011027409
0.055930503 0.06931595 0.049158815 -0.019833632 0.046017893 -0.045298733 -0.133027 0.056933068
-0.012997483 0.018982885 -0.1021223 -0.27814624 0.13607223 0.057111178 0.002997433 -0.04224599
0.023095695 0.11252012 -0.23573981 0.23758025 0.085269496 -0.057708144 -0.06145065 0.009526191
0.21135409 0.06288504 0.0029290388 -0.010837238 0.04394141 0.12515026 -0.047497235 0.061946604
-0.22310126 0.028406233 0.04710614 -0.047087885 0.059780587 -0.018553412 -0.19240206 -0.13507216
-0.06491716 -0.10796924 -0.040582594 -0.10136578 0.13357571 0.1999763 0.012480867 -0.073731035
-0.31378764 0.12903388 -0.07159414 0.025353802 0.048751477 -0.04043991 -0.17978896 -0.081989996
-0.039238717 0.073254734 -0.12733255 -0.017229458 -0.0028819423 -0.051061478 -0.081083156 0.16769896
-0.09706646 0.25831276 -0.050683368 -0.12519296 -0.08620876 0.014279401 -0.016842956 -0.31695035
0.020704294 0.09280109 -0.05935579 0.07361509 -0.10920751 0.040224854 0.24991234 0.034155723
0.06058892 -0.03689744 0.11176812 -0.03249676 0.056479245 0.082942404 0.05904919 0.08041419
-0.07075318 -0.07065803 -0.017711189 -0.03553765 0.13487443 0.058814842 -0.105693884 -0.19104758
-0.08213398 -0.07467261 -0.11729286 -0.07848583 -0.036828123 0.011708547 0.2030249 -0.106532276
0.11105009 0.06994859 0.080148615 0.07176371 -0.13328347 -0.1351643 -0.03698991 -0.11434525
-0.15659313 0.05385751 -0.10799108 -0.28305385 0.16326882 -0.042062875 0.16640122 0.17707583
0.030311199 0.07610948 -0.038749017 -0.10362615 -0.00035684358 -0.23451091 -0.08021917 -0.12520012
-0.024233712 0.098922856 -0.009333552 0.011250565 -0.15025283 -0.08625626 0.06761911 0.04474039
00000000: 6761 f8bc 2067 243d f9b1 843d 4233 ccbc
00000010: 8820 ecba ac8f f8bd f292 fb3c 23e2 a83d
00000020: 6128 88bd 696e 1e3e 9d24 0f3d 776f 80bd
00000030: 04d7 38be 5417 0b3d 74f2 263e 9f05 a43d
00000040: 42a5 383c 4a05 3b3e 44b8 053c 9834 e63d
00000050: c2e5 8f3e ba1f fdbd f5b0 1ebe 5fdf 1cbe
00000060: ad23 a03d 58cd 0dbc be83 21be 3448 64bc
00000070: 2767 87bc 09a4 913d a9a1 0e3b cf50 84b9
00000080: d380 043e f9bf 30bd ed34 cbbd 498b b5bd
00000090: 9567 80bd 6cf0 97be 97a4 1c3d ab76 b93d
000000a0: da56 5abd c96b dc3c 819c 063e d3df 06be
000000b0: 42d0 b73c 5099 143e 454e a9bd 7bf7 163e
000000c0: 79fb 8d3b 1cbd 193e f5b4 f7bc f177 5a3d
000000d0: 27ee afbc 1162 ea3d df99 a3bd 8246 f4bc
000000e0: 9b44 ba3d f973 0e3e b6a9 02be c0b7 f2bd
000000f0: 1876 fbbc 10fb fd3d 7763 6d3e db63 3b3b
00000100: 94c9 3a3c b892 33bd 2a16 06be 1987 a33d
00000110: 8cc6 dd3d a5cf 1fbd cea4 de3c f1d9 a8bd
00000120: 5f7c 763e 9da1 73bd bdc0 183d 691e 893d
00000130: 4785 b03c 4c47 be3d 0c55 7fbe d518 debc
00000140: dfa4 f6bd f1a4 96bc 47df c93d f188 563d
00000150: e95b 7fbd 83e4 dabc 9277 2c3d a3a9 143e
00000160: e451 013c b9d8 2ebe 96ad 4fbe 42ba 4ebb
00000170: e45e 9cbd 884c 783e c818 0dbd d50e 4abd
00000180: 3a2a 463d dc2e 47be efea f73c b7a4 ddbd
00000190: caed 073d 157d 8a3d 4d72 d83d 339c 093d
000001a0: b77d 0fbe 7174 6dbd 37f7 9f3c ce26 8b3d
000001b0: 27a7 0dbe cd01 7a3d bdfe b13b 8fa6 8bbd
000001c0: 51a3 27bc 8460 23bd ed47 5e3e d2fb 4ebe
000001d0: 2586 013e feb2 21bd 7390 c8bd 4eac 34bc
000001e0: 6217 653d 85f5 8d3d c15a 493d 247a a2bc
000001f0: 427d 3c3d 2a8b 39bd 3b38 08be a632 693d
00000200: 65f3 54bc ff81 9b3c 7f25 d1bd 2f69 8ebe
00000210: 8556 0b3e 69ed 693d 9570 443b 220a 2dbd
00000220: 2f33 bd3c f370 e63d c765 71be 3d48 733e
00000230: c6a1 ae3d 605f 6cbd adb3 7bbd be13 1c3c
00000240: 356d 583e dfc9 803d 1ef5 3f3b ac8e 31bc
00000250: e8fb 333d 6427 003e 768c 42bd b9bb 7d3d
00000260: a874 64be 30b4 e83c 5ef2 403d 3adf 40bd
00000270: 7ddc 743d 53fd 97bc 0c05 45be 5b50 0abe
00000280: 4af3 84bd fa1e ddbd ef39 26bd dd98 cfbd
00000290: 12c8 083e 96c6 4c3e 8d7c 4c3c 4c00 97bd
000002a0: c6a8 a0be 7521 043e f39f 92bd c7b2 cf3c
000002b0: a1af 473d 52a4 25bd 991a 38be 5fea a7bd
000002c0: c7b8 20bd 9406 963d 7763 02be cb24 8dbc
000002d0: f8de 3cbb d725 51bd ed0e a6bd 47b9 2b3e
000002e0: c8ca c6bd 9241 843e 5d99 4fbd 9532 00be
000002f0: 388e b0bd 26f4 693c 3dfa 89bc 5147 a2be
00000300: 0d9c a93c 7f0e be3d 0f1f 73bd 82c3 963d
00000310: 30a8 dfbd d1c2 243d 05e9 7f3e dfe6 0b3d
00000320: 162c 783d c521 17bd afe6 e43d 531b 05bd
00000330: c856 673d b5dd a93d 90dd 713d 32b0 a43d
00000340: 0be7 90bd 28b5 90bd 0e17 91bc ed8f 11bd
00000350: 861c 0a3e d5e7 703d 0976 d8bd faa1 43be
00000360: dc35 a8bd f4ed 98bd 3d37 f0bd 2ebd a0bd
00000370: 16d9 16bd 35d5 3f3c c2e5 4f3e 982d dabd
00000380: 3b6e e33d 3541 8f3d f524 a43d daf8 923d
00000390: 767b 08be 8368 0abe bb82 17bd d82d eabd
000003a0: f359 20be b199 5c3d 6d2a ddbd 6fec 90be
000003b0: f12f 273e 1f4a 2cbd 1565 2a3e 5e53 353e
000003c0: 314f f83c 49df 9b3d 4ab7 1ebd f239 d4bd
000003d0: bc16 bbb9 a123 70be f349 a4bd 7634 00be
000003e0: c785 c6bc 1198 ca3d c1eb 18bc 4a54 383c
000003f0: e1db 19be 1fa7 b0bd e37b 8a3d b341 373d

b4 f4 [10]
-0.0012105992 -0.01317509 0.0126449 0.013114122 0.011609988 -0.023452766 0.011164582 -0.0119846845
-0.017128352 0.00028966393
00000000: f8ac 9eba 55dc 57bc 8e2c 4f3c 9ddc 563c
00000010: d237 3e3c 0420 c0bc a7eb 363c 695b 44bc
00000020: c250 8cbc 09de 9739
